NodeProblem: loading started
loading edge embedding for APA complete, num of embeddings: 7586
loading edge embedding for APAPA complete, num of embeddings: 22381
loading edge embedding for APCPA complete, num of embeddings: 2502277
0.44872806400000004
NodeProblem: loading finished
Let's use 2 GPUs!
DataParallel(
  (module): HINGCN_GS(
    (prep): LinearPrep(
      (fc): Linear(in_features=8920, out_features=32, bias=False)
    )
    (agg_0_0): ModuleList(
      (0): AttentionAggregator2(
        (att): Sequential(
          (0): Linear(in_features=32, out_features=512, bias=False)
          (1): Tanh()
          (2): Linear(in_features=512, out_features=512, bias=False)
        )
        (att2): Sequential(
          (0): Linear(in_features=50, out_features=512, bias=False)
          (1): Tanh()
          (2): Linear(in_features=512, out_features=512, bias=False)
        )
        (fc_x): Linear(in_features=32, out_features=64, bias=False)
        (fc_neib): Linear(in_features=50, out_features=64, bias=False)
        (dropout): Dropout(p=0.0)
      )
      (1): AttentionAggregator2(
        (att): Sequential(
          (0): Linear(in_features=32, out_features=512, bias=False)
          (1): Tanh()
          (2): Linear(in_features=512, out_features=512, bias=False)
        )
        (att2): Sequential(
          (0): Linear(in_features=50, out_features=512, bias=False)
          (1): Tanh()
          (2): Linear(in_features=512, out_features=512, bias=False)
        )
        (fc_x): Linear(in_features=32, out_features=64, bias=False)
        (fc_neib): Linear(in_features=50, out_features=64, bias=False)
        (dropout): Dropout(p=0.0)
      )
      (2): AttentionAggregator2(
        (att): Sequential(
          (0): Linear(in_features=32, out_features=512, bias=False)
          (1): Tanh()
          (2): Linear(in_features=512, out_features=512, bias=False)
        )
        (att2): Sequential(
          (0): Linear(in_features=50, out_features=512, bias=False)
          (1): Tanh()
          (2): Linear(in_features=512, out_features=512, bias=False)
        )
        (fc_x): Linear(in_features=32, out_features=64, bias=False)
        (fc_neib): Linear(in_features=50, out_features=64, bias=False)
        (dropout): Dropout(p=0.0)
      )
      (3): AttentionAggregator2(
        (att): Sequential(
          (0): Linear(in_features=32, out_features=512, bias=False)
          (1): Tanh()
          (2): Linear(in_features=512, out_features=512, bias=False)
        )
        (att2): Sequential(
          (0): Linear(in_features=50, out_features=512, bias=False)
          (1): Tanh()
          (2): Linear(in_features=512, out_features=512, bias=False)
        )
        (fc_x): Linear(in_features=32, out_features=64, bias=False)
        (fc_neib): Linear(in_features=50, out_features=64, bias=False)
        (dropout): Dropout(p=0.0)
      )
    )
    (edge_0_0): IdEdgeAggregator(
      (dropout): Dropout(p=0.0)
    )
    (agg_1_0): ModuleList(
      (0): AttentionAggregator2(
        (att): Sequential(
          (0): Linear(in_features=32, out_features=512, bias=False)
          (1): Tanh()
          (2): Linear(in_features=512, out_features=512, bias=False)
        )
        (att2): Sequential(
          (0): Linear(in_features=50, out_features=512, bias=False)
          (1): Tanh()
          (2): Linear(in_features=512, out_features=512, bias=False)
        )
        (fc_x): Linear(in_features=32, out_features=64, bias=False)
        (fc_neib): Linear(in_features=50, out_features=64, bias=False)
        (dropout): Dropout(p=0.0)
      )
      (1): AttentionAggregator2(
        (att): Sequential(
          (0): Linear(in_features=32, out_features=512, bias=False)
          (1): Tanh()
          (2): Linear(in_features=512, out_features=512, bias=False)
        )
        (att2): Sequential(
          (0): Linear(in_features=50, out_features=512, bias=False)
          (1): Tanh()
          (2): Linear(in_features=512, out_features=512, bias=False)
        )
        (fc_x): Linear(in_features=32, out_features=64, bias=False)
        (fc_neib): Linear(in_features=50, out_features=64, bias=False)
        (dropout): Dropout(p=0.0)
      )
      (2): AttentionAggregator2(
        (att): Sequential(
          (0): Linear(in_features=32, out_features=512, bias=False)
          (1): Tanh()
          (2): Linear(in_features=512, out_features=512, bias=False)
        )
        (att2): Sequential(
          (0): Linear(in_features=50, out_features=512, bias=False)
          (1): Tanh()
          (2): Linear(in_features=512, out_features=512, bias=False)
        )
        (fc_x): Linear(in_features=32, out_features=64, bias=False)
        (fc_neib): Linear(in_features=50, out_features=64, bias=False)
        (dropout): Dropout(p=0.0)
      )
      (3): AttentionAggregator2(
        (att): Sequential(
          (0): Linear(in_features=32, out_features=512, bias=False)
          (1): Tanh()
          (2): Linear(in_features=512, out_features=512, bias=False)
        )
        (att2): Sequential(
          (0): Linear(in_features=50, out_features=512, bias=False)
          (1): Tanh()
          (2): Linear(in_features=512, out_features=512, bias=False)
        )
        (fc_x): Linear(in_features=32, out_features=64, bias=False)
        (fc_neib): Linear(in_features=50, out_features=64, bias=False)
        (dropout): Dropout(p=0.0)
      )
    )
    (edge_1_0): IdEdgeAggregator(
      (dropout): Dropout(p=0.0)
    )
    (agg_2_0): ModuleList(
      (0): AttentionAggregator2(
        (att): Sequential(
          (0): Linear(in_features=32, out_features=512, bias=False)
          (1): Tanh()
          (2): Linear(in_features=512, out_features=512, bias=False)
        )
        (att2): Sequential(
          (0): Linear(in_features=50, out_features=512, bias=False)
          (1): Tanh()
          (2): Linear(in_features=512, out_features=512, bias=False)
        )
        (fc_x): Linear(in_features=32, out_features=64, bias=False)
        (fc_neib): Linear(in_features=50, out_features=64, bias=False)
        (dropout): Dropout(p=0.0)
      )
      (1): AttentionAggregator2(
        (att): Sequential(
          (0): Linear(in_features=32, out_features=512, bias=False)
          (1): Tanh()
          (2): Linear(in_features=512, out_features=512, bias=False)
        )
        (att2): Sequential(
          (0): Linear(in_features=50, out_features=512, bias=False)
          (1): Tanh()
          (2): Linear(in_features=512, out_features=512, bias=False)
        )
        (fc_x): Linear(in_features=32, out_features=64, bias=False)
        (fc_neib): Linear(in_features=50, out_features=64, bias=False)
        (dropout): Dropout(p=0.0)
      )
      (2): AttentionAggregator2(
        (att): Sequential(
          (0): Linear(in_features=32, out_features=512, bias=False)
          (1): Tanh()
          (2): Linear(in_features=512, out_features=512, bias=False)
        )
        (att2): Sequential(
          (0): Linear(in_features=50, out_features=512, bias=False)
          (1): Tanh()
          (2): Linear(in_features=512, out_features=512, bias=False)
        )
        (fc_x): Linear(in_features=32, out_features=64, bias=False)
        (fc_neib): Linear(in_features=50, out_features=64, bias=False)
        (dropout): Dropout(p=0.0)
      )
      (3): AttentionAggregator2(
        (att): Sequential(
          (0): Linear(in_features=32, out_features=512, bias=False)
          (1): Tanh()
          (2): Linear(in_features=512, out_features=512, bias=False)
        )
        (att2): Sequential(
          (0): Linear(in_features=50, out_features=512, bias=False)
          (1): Tanh()
          (2): Linear(in_features=512, out_features=512, bias=False)
        )
        (fc_x): Linear(in_features=32, out_features=64, bias=False)
        (fc_neib): Linear(in_features=50, out_features=64, bias=False)
        (dropout): Dropout(p=0.0)
      )
    )
    (edge_2_0): IdEdgeAggregator(
      (dropout): Dropout(p=0.0)
    )
    (mp_agg): MetapathAttentionLayer (256 -> 256)
    (fc): Sequential(
      (0): Linear(in_features=256, out_features=32, bias=True)
      (1): ReLU()
      (2): Dropout(p=0.0)
      (3): Linear(in_features=32, out_features=4, bias=True)
    )
  )
)
{"epoch":0,"time":26.24001,"train_loss":121.93895}
{"epoch":0,"val_loss":57.0719,"val_metric":{"accuracy":0.93787,"micro":0.93787,"macro":0.93319},"test_metric":{"accuracy":0.93596,"micro":0.93596,"macro":0.9315},"tolerance:":0}
{"epoch":1,"time":78.28884,"train_loss":15.21383}
{"epoch":1,"val_loss":52.71945,"val_metric":{"accuracy":0.93195,"micro":0.93195,"macro":0.92443},"test_metric":{"accuracy":0.92611,"micro":0.92611,"macro":0.92027},"tolerance:":1}
…
