NodeProblem: loading started
loading edge embedding for APA complete, num of embeddings: 7586
loading edge embedding for APAPA complete, num of embeddings: 22381
loading edge embedding for APCPA complete, num of embeddings: 2502277
0.44872806400000004
NodeProblem: loading finished
Let's use 2 GPUs!
DataParallel(
  (module): HINGCN_GS(
    (prep): LinearPrep(
      (fc): Linear(in_features=8920, out_features=32, bias=False)
    )
    (agg_0_0): ModuleList(
      (0): AttentionAggregator2(
        (att): Sequential(
          (0): Linear(in_features=32, out_features=512, bias=False)
          (1): Tanh()
          (2): Linear(in_features=512, out_features=512, bias=False)
        )
        (att2): Sequential(
          (0): Linear(in_features=50, out_features=512, bias=False)
          (1): Tanh()
          (2): Linear(in_features=512, out_features=512, bias=False)
        )
        (fc_x): Linear(in_features=32, out_features=128, bias=False)
        (fc_neib): Linear(in_features=50, out_features=128, bias=False)
        (dropout): Dropout(p=0.0)
      )
      (1): AttentionAggregator2(
        (att): Sequential(
          (0): Linear(in_features=32, out_features=512, bias=False)
          (1): Tanh()
          (2): Linear(in_features=512, out_features=512, bias=False)
        )
        (att2): Sequential(
          (0): Linear(in_features=50, out_features=512, bias=False)
          (1): Tanh()
          (2): Linear(in_features=512, out_features=512, bias=False)
        )
        (fc_x): Linear(in_features=32, out_features=128, bias=False)
        (fc_neib): Linear(in_features=50, out_features=128, bias=False)
        (dropout): Dropout(p=0.0)
      )
      (2): AttentionAggregator2(
        (att): Sequential(
          (0): Linear(in_features=32, out_features=512, bias=False)
          (1): Tanh()
          (2): Linear(in_features=512, out_features=512, bias=False)
        )
        (att2): Sequential(
          (0): Linear(in_features=50, out_features=512, bias=False)
          (1): Tanh()
          (2): Linear(in_features=512, out_features=512, bias=False)
        )
        (fc_x): Linear(in_features=32, out_features=128, bias=False)
        (fc_neib): Linear(in_features=50, out_features=128, bias=False)
        (dropout): Dropout(p=0.0)
      )
      (3): AttentionAggregator2(
        (att): Sequential(
          (0): Linear(in_features=32, out_features=512, bias=False)
          (1): Tanh()
          (2): Linear(in_features=512, out_features=512, bias=False)
        )
        (att2): Sequential(
          (0): Linear(in_features=50, out_features=512, bias=False)
          (1): Tanh()
          (2): Linear(in_features=512, out_features=512, bias=False)
        )
        (fc_x): Linear(in_features=32, out_features=128, bias=False)
        (fc_neib): Linear(in_features=50, out_features=128, bias=False)
        (dropout): Dropout(p=0.0)
      )
    )
    (edge_0_0): IdEdgeAggregator(
      (dropout): Dropout(p=0.0)
    )
    (agg_1_0): ModuleList(
      (0): AttentionAggregator2(
        (att): Sequential(
          (0): Linear(in_features=32, out_features=512, bias=False)
          (1): Tanh()
          (2): Linear(in_features=512, out_features=512, bias=False)
        )
        (att2): Sequential(
          (0): Linear(in_features=50, out_features=512, bias=False)
          (1): Tanh()
          (2): Linear(in_features=512, out_features=512, bias=False)
        )
        (fc_x): Linear(in_features=32, out_features=128, bias=False)
        (fc_neib): Linear(in_features=50, out_features=128, bias=False)
        (dropout): Dropout(p=0.0)
      )
      (1): AttentionAggregator2(
        (att): Sequential(
          (0): Linear(in_features=32, out_features=512, bias=False)
          (1): Tanh()
          (2): Linear(in_features=512, out_features=512, bias=False)
        )
        (att2): Sequential(
          (0): Linear(in_features=50, out_features=512, bias=False)
          (1): Tanh()
          (2): Linear(in_features=512, out_features=512, bias=False)
        )
        (fc_x): Linear(in_features=32, out_features=128, bias=False)
        (fc_neib): Linear(in_features=50, out_features=128, bias=False)
        (dropout): Dropout(p=0.0)
      )
      (2): AttentionAggregator2(
        (att): Sequential(
          (0): Linear(in_features=32, out_features=512, bias=False)
          (1): Tanh()
          (2): Linear(in_features=512, out_features=512, bias=False)
        )
        (att2): Sequential(
          (0): Linear(in_features=50, out_features=512, bias=False)
          (1): Tanh()
          (2): Linear(in_features=512, out_features=512, bias=False)
        )
        (fc_x): Linear(in_features=32, out_features=128, bias=False)
        (fc_neib): Linear(in_features=50, out_features=128, bias=False)
        (dropout): Dropout(p=0.0)
      )
      (3): AttentionAggregator2(
        (att): Sequential(
          (0): Linear(in_features=32, out_features=512, bias=False)
          (1): Tanh()
          (2): Linear(in_features=512, out_features=512, bias=False)
        )
        (att2): Sequential(
          (0): Linear(in_features=50, out_features=512, bias=False)
          (1): Tanh()
          (2): Linear(in_features=512, out_features=512, bias=False)
        )
        (fc_x): Linear(in_features=32, out_features=128, bias=False)
        (fc_neib): Linear(in_features=50, out_features=128, bias=False)
        (dropout): Dropout(p=0.0)
      )
    )
    (edge_1_0): IdEdgeAggregator(
      (dropout): Dropout(p=0.0)
    )
    (agg_2_0): ModuleList(
      (0): AttentionAggregator2(
        (att): Sequential(
          (0): Linear(in_features=32, out_features=512, bias=False)
          (1): Tanh()
          (2): Linear(in_features=512, out_features=512, bias=False)
        )
        (att2): Sequential(
          (0): Linear(in_features=50, out_features=512, bias=False)
          (1): Tanh()
          (2): Linear(in_features=512, out_features=512, bias=False)
        )
        (fc_x): Linear(in_features=32, out_features=128, bias=False)
        (fc_neib): Linear(in_features=50, out_features=128, bias=False)
        (dropout): Dropout(p=0.0)
      )
      (1): AttentionAggregator2(
        (att): Sequential(
          (0): Linear(in_features=32, out_features=512, bias=False)
          (1): Tanh()
          (2): Linear(in_features=512, out_features=512, bias=False)
        )
        (att2): Sequential(
          (0): Linear(in_features=50, out_features=512, bias=False)
          (1): Tanh()
          (2): Linear(in_features=512, out_features=512, bias=False)
        )
        (fc_x): Linear(in_features=32, out_features=128, bias=False)
        (fc_neib): Linear(in_features=50, out_features=128, bias=False)
        (dropout): Dropout(p=0.0)
      )
      (2): AttentionAggregator2(
        (att): Sequential(
          (0): Linear(in_features=32, out_features=512, bias=False)
          (1): Tanh()
          (2): Linear(in_features=512, out_features=512, bias=False)
        )
        (att2): Sequential(
          (0): Linear(in_features=50, out_features=512, bias=False)
          (1): Tanh()
          (2): Linear(in_features=512, out_features=512, bias=False)
        )
        (fc_x): Linear(in_features=32, out_features=128, bias=False)
        (fc_neib): Linear(in_features=50, out_features=128, bias=False)
        (dropout): Dropout(p=0.0)
      )
      (3): AttentionAggregator2(
        (att): Sequential(
          (0): Linear(in_features=32, out_features=512, bias=False)
          (1): Tanh()
          (2): Linear(in_features=512, out_features=512, bias=False)
        )
        (att2): Sequential(
          (0): Linear(in_features=50, out_features=512, bias=False)
          (1): Tanh()
          (2): Linear(in_features=512, out_features=512, bias=False)
        )
        (fc_x): Linear(in_features=32, out_features=128, bias=False)
        (fc_neib): Linear(in_features=50, out_features=128, bias=False)
        (dropout): Dropout(p=0.0)
      )
    )
    (edge_2_0): IdEdgeAggregator(
      (dropout): Dropout(p=0.0)
    )
    (mp_agg): MetapathGateLayer (512 -> 512)
    (fc): Sequential(
      (0): Linear(in_features=512, out_features=32, bias=True)
      (1): ReLU()
      (2): Dropout(p=0.0)
      (3): Linear(in_features=32, out_features=4, bias=True)
    )
  )
)
{"epoch":0,"time":29.38958,"train_loss":159.49449}
{"epoch":0,"val_loss":70.26474,"val_metric":{"accuracy":0.90265,"micro":0.90265,"macro":0.89628},"test_metric":{"accuracy":0.89778,"micro":0.89778,"macro":0.89275},"tolerance:":0}
{"epoch":1,"time":84.45384,"train_loss":38.73272}
{"epoch":1,"val_loss":56.51705,"val_metric":{"accuracy":0.91374,"micro":0.91374,"macro":0.91005},"test_metric":{"accuracy":0.91872,"micro":0.91872,"macro":0.91422},"tolerance:":0}
…
