NodeProblem: loading started
loading edge embedding for APA complete, num of embeddings: 7586
loading edge embedding for APAPA complete, num of embeddings: 22381
loading edge embedding for APCPA complete, num of embeddings: 2502277
0.44872806400000004
NodeProblem: loading finished
Let's use 2 GPUs!
DataParallel(
  (module): HINGCN_GS(
    (prep): LinearPrep(
      (fc): Linear(in_features=8920, out_features=32, bias=False)
    )
    (agg_0_0): ModuleList(
      (0): AttentionAggregator2(
        (att): Sequential(
          (0): Linear(in_features=32, out_features=512, bias=False)
          (1): Tanh()
          (2): Linear(in_features=512, out_features=512, bias=False)
        )
        (att2): Sequential(
          (0): Linear(in_features=50, out_features=512, bias=False)
          (1): Tanh()
          (2): Linear(in_features=512, out_features=512, bias=False)
        )
        (fc_x): Linear(in_features=32, out_features=32, bias=False)
        (fc_neib): Linear(in_features=50, out_features=32, bias=False)
        (dropout): Dropout(p=0.0)
      )
      (1): AttentionAggregator2(
        (att): Sequential(
          (0): Linear(in_features=32, out_features=512, bias=False)
          (1): Tanh()
          (2): Linear(in_features=512, out_features=512, bias=False)
        )
        (att2): Sequential(
          (0): Linear(in_features=50, out_features=512, bias=False)
          (1): Tanh()
          (2): Linear(in_features=512, out_features=512, bias=False)
        )
        (fc_x): Linear(in_features=32, out_features=32, bias=False)
        (fc_neib): Linear(in_features=50, out_features=32, bias=False)
        (dropout): Dropout(p=0.0)
      )
      (2): AttentionAggregator2(
        (att): Sequential(
          (0): Linear(in_features=32, out_features=512, bias=False)
          (1): Tanh()
          (2): Linear(in_features=512, out_features=512, bias=False)
        )
        (att2): Sequential(
          (0): Linear(in_features=50, out_features=512, bias=False)
          (1): Tanh()
          (2): Linear(in_features=512, out_features=512, bias=False)
        )
        (fc_x): Linear(in_features=32, out_features=32, bias=False)
        (fc_neib): Linear(in_features=50, out_features=32, bias=False)
        (dropout): Dropout(p=0.0)
      )
      (3): AttentionAggregator2(
        (att): Sequential(
          (0): Linear(in_features=32, out_features=512, bias=False)
          (1): Tanh()
          (2): Linear(in_features=512, out_features=512, bias=False)
        )
        (att2): Sequential(
          (0): Linear(in_features=50, out_features=512, bias=False)
          (1): Tanh()
          (2): Linear(in_features=512, out_features=512, bias=False)
        )
        (fc_x): Linear(in_features=32, out_features=32, bias=False)
        (fc_neib): Linear(in_features=50, out_features=32, bias=False)
        (dropout): Dropout(p=0.0)
      )
    )
    (edge_0_0): IdEdgeAggregator(
      (dropout): Dropout(p=0.0)
    )
    (agg_1_0): ModuleList(
      (0): AttentionAggregator2(
        (att): Sequential(
          (0): Linear(in_features=32, out_features=512, bias=False)
          (1): Tanh()
          (2): Linear(in_features=512, out_features=512, bias=False)
        )
        (att2): Sequential(
          (0): Linear(in_features=50, out_features=512, bias=False)
          (1): Tanh()
          (2): Linear(in_features=512, out_features=512, bias=False)
        )
        (fc_x): Linear(in_features=32, out_features=32, bias=False)
        (fc_neib): Linear(in_features=50, out_features=32, bias=False)
        (dropout): Dropout(p=0.0)
      )
      (1): AttentionAggregator2(
        (att): Sequential(
          (0): Linear(in_features=32, out_features=512, bias=False)
          (1): Tanh()
          (2): Linear(in_features=512, out_features=512, bias=False)
        )
        (att2): Sequential(
          (0): Linear(in_features=50, out_features=512, bias=False)
          (1): Tanh()
          (2): Linear(in_features=512, out_features=512, bias=False)
        )
        (fc_x): Linear(in_features=32, out_features=32, bias=False)
        (fc_neib): Linear(in_features=50, out_features=32, bias=False)
        (dropout): Dropout(p=0.0)
      )
      (2): AttentionAggregator2(
        (att): Sequential(
          (0): Linear(in_features=32, out_features=512, bias=False)
          (1): Tanh()
          (2): Linear(in_features=512, out_features=512, bias=False)
        )
        (att2): Sequential(
          (0): Linear(in_features=50, out_features=512, bias=False)
          (1): Tanh()
          (2): Linear(in_features=512, out_features=512, bias=False)
        )
        (fc_x): Linear(in_features=32, out_features=32, bias=False)
        (fc_neib): Linear(in_features=50, out_features=32, bias=False)
        (dropout): Dropout(p=0.0)
      )
      (3): AttentionAggregator2(
        (att): Sequential(
          (0): Linear(in_features=32, out_features=512, bias=False)
          (1): Tanh()
          (2): Linear(in_features=512, out_features=512, bias=False)
        )
        (att2): Sequential(
          (0): Linear(in_features=50, out_features=512, bias=False)
          (1): Tanh()
          (2): Linear(in_features=512, out_features=512, bias=False)
        )
        (fc_x): Linear(in_features=32, out_features=32, bias=False)
        (fc_neib): Linear(in_features=50, out_features=32, bias=False)
        (dropout): Dropout(p=0.0)
      )
    )
    (edge_1_0): IdEdgeAggregator(
      (dropout): Dropout(p=0.0)
    )
    (agg_2_0): ModuleList(
      (0): AttentionAggregator2(
        (att): Sequential(
          (0): Linear(in_features=32, out_features=512, bias=False)
          (1): Tanh()
          (2): Linear(in_features=512, out_features=512, bias=False)
        )
        (att2): Sequential(
          (0): Linear(in_features=50, out_features=512, bias=False)
          (1): Tanh()
          (2): Linear(in_features=512, out_features=512, bias=False)
        )
        (fc_x): Linear(in_features=32, out_features=32, bias=False)
        (fc_neib): Linear(in_features=50, out_features=32, bias=False)
        (dropout): Dropout(p=0.0)
      )
      (1): AttentionAggregator2(
        (att): Sequential(
          (0): Linear(in_features=32, out_features=512, bias=False)
          (1): Tanh()
          (2): Linear(in_features=512, out_features=512, bias=False)
        )
        (att2): Sequential(
          (0): Linear(in_features=50, out_features=512, bias=False)
          (1): Tanh()
          (2): Linear(in_features=512, out_features=512, bias=False)
        )
        (fc_x): Linear(in_features=32, out_features=32, bias=False)
        (fc_neib): Linear(in_features=50, out_features=32, bias=False)
        (dropout): Dropout(p=0.0)
      )
      (2): AttentionAggregator2(
        (att): Sequential(
          (0): Linear(in_features=32, out_features=512, bias=False)
          (1): Tanh()
          (2): Linear(in_features=512, out_features=512, bias=False)
        )
        (att2): Sequential(
          (0): Linear(in_features=50, out_features=512, bias=False)
          (1): Tanh()
          (2): Linear(in_features=512, out_features=512, bias=False)
        )
        (fc_x): Linear(in_features=32, out_features=32, bias=False)
        (fc_neib): Linear(in_features=50, out_features=32, bias=False)
        (dropout): Dropout(p=0.0)
      )
      (3): AttentionAggregator2(
        (att): Sequential(
          (0): Linear(in_features=32, out_features=512, bias=False)
          (1): Tanh()
          (2): Linear(in_features=512, out_features=512, bias=False)
        )
        (att2): Sequential(
          (0): Linear(in_features=50, out_features=512, bias=False)
          (1): Tanh()
          (2): Linear(in_features=512, out_features=512, bias=False)
        )
        (fc_x): Linear(in_features=32, out_features=32, bias=False)
        (fc_neib): Linear(in_features=50, out_features=32, bias=False)
        (dropout): Dropout(p=0.0)
      )
    )
    (edge_2_0): IdEdgeAggregator(
      (dropout): Dropout(p=0.0)
    )
    (mp_agg): MetapathGateLayer (128 -> 128)
    (fc): Sequential(
      (0): Linear(in_features=128, out_features=32, bias=True)
      (1): ReLU()
      (2): Dropout(p=0.0)
      (3): Linear(in_features=32, out_features=4, bias=True)
    )
  )
)
{"epoch":0,"time":32.80445,"train_loss":159.33366}
{"epoch":0,"val_loss":55.94887,"val_metric":{"accuracy":0.91251,"micro":0.91251,"macro":0.90832},"test_metric":{"accuracy":0.91256,"micro":0.91256,"macro":0.90955},"tolerance:":0}
{"epoch":1,"time":87.23172,"train_loss":30.34734}
{"epoch":1,"val_loss":57.90292,"val_metric":{"accuracy":0.91805,"micro":0.91805,"macro":0.91025},"test_metric":{"accuracy":0.92241,"micro":0.92241,"macro":0.91635},"tolerance:":0}
…
