NodeProblem: loading started
loading edge embedding for APCPA complete, num of embeddings: 2502277
NodeProblem: loading finished
Let's use 1 GPUs!
DataParallel(
  (module): HINGCN_Dense(
    (prep): NodeEmbeddingPrep(
      (embedding): Embedding(4058, 64)
      (fc): Linear(in_features=64, out_features=64, bias=True)
    )
    (agg_0_0): ModuleList(
      (0): DenseAttentionAggregator(
        (att_x): Sequential(
          (0): Linear(in_features=8984, out_features=32, bias=True)
          (1): Tanh()
          (2): Linear(in_features=32, out_features=32, bias=True)
        )
        (att_neigh): Sequential(
          (0): Linear(in_features=8984, out_features=32, bias=True)
          (1): Tanh()
          (2): Linear(in_features=32, out_features=32, bias=True)
        )
        (fc_value): Linear(in_features=8984, out_features=64, bias=True)
        (fc_x): Linear(in_features=8984, out_features=64, bias=True)
        (dropout): Dropout(p=0.5)
      )
      (1): DenseAttentionAggregator(
        (att_x): Sequential(
          (0): Linear(in_features=8984, out_features=32, bias=True)
          (1): Tanh()
          (2): Linear(in_features=32, out_features=32, bias=True)
        )
        (att_neigh): Sequential(
          (0): Linear(in_features=8984, out_features=32, bias=True)
          (1): Tanh()
          (2): Linear(in_features=32, out_features=32, bias=True)
        )
        (fc_value): Linear(in_features=8984, out_features=64, bias=True)
        (fc_x): Linear(in_features=8984, out_features=64, bias=True)
        (dropout): Dropout(p=0.5)
      )
      (2): DenseAttentionAggregator(
        (att_x): Sequential(
          (0): Linear(in_features=8984, out_features=32, bias=True)
          (1): Tanh()
          (2): Linear(in_features=32, out_features=32, bias=True)
        )
        (att_neigh): Sequential(
          (0): Linear(in_features=8984, out_features=32, bias=True)
          (1): Tanh()
          (2): Linear(in_features=32, out_features=32, bias=True)
        )
        (fc_value): Linear(in_features=8984, out_features=64, bias=True)
        (fc_x): Linear(in_features=8984, out_features=64, bias=True)
        (dropout): Dropout(p=0.5)
      )
      (3): DenseAttentionAggregator(
        (att_x): Sequential(
          (0): Linear(in_features=8984, out_features=32, bias=True)
          (1): Tanh()
          (2): Linear(in_features=32, out_features=32, bias=True)
        )
        (att_neigh): Sequential(
          (0): Linear(in_features=8984, out_features=32, bias=True)
          (1): Tanh()
          (2): Linear(in_features=32, out_features=32, bias=True)
        )
        (fc_value): Linear(in_features=8984, out_features=64, bias=True)
        (fc_x): Linear(in_features=8984, out_features=64, bias=True)
        (dropout): Dropout(p=0.5)
      )
    )
    (agg_0_1): ModuleList(
      (0): DenseAttentionAggregator(
        (att_x): Sequential(
          (0): Linear(in_features=256, out_features=32, bias=True)
          (1): Tanh()
          (2): Linear(in_features=32, out_features=32, bias=True)
        )
        (att_neigh): Sequential(
          (0): Linear(in_features=256, out_features=32, bias=True)
          (1): Tanh()
          (2): Linear(in_features=32, out_features=32, bias=True)
        )
        (fc_value): Linear(in_features=256, out_features=16, bias=True)
        (fc_x): Linear(in_features=256, out_features=16, bias=True)
        (dropout): Dropout(p=0.5)
      )
      (1): DenseAttentionAggregator(
        (att_x): Sequential(
          (0): Linear(in_features=256, out_features=32, bias=True)
          (1): Tanh()
          (2): Linear(in_features=32, out_features=32, bias=True)
        )
        (att_neigh): Sequential(
          (0): Linear(in_features=256, out_features=32, bias=True)
          (1): Tanh()
          (2): Linear(in_features=32, out_features=32, bias=True)
        )
        (fc_value): Linear(in_features=256, out_features=16, bias=True)
        (fc_x): Linear(in_features=256, out_features=16, bias=True)
        (dropout): Dropout(p=0.5)
      )
      (2): DenseAttentionAggregator(
        (att_x): Sequential(
          (0): Linear(in_features=256, out_features=32, bias=True)
          (1): Tanh()
          (2): Linear(in_features=32, out_features=32, bias=True)
        )
        (att_neigh): Sequential(
          (0): Linear(in_features=256, out_features=32, bias=True)
          (1): Tanh()
          (2): Linear(in_features=32, out_features=32, bias=True)
        )
        (fc_value): Linear(in_features=256, out_features=16, bias=True)
        (fc_x): Linear(in_features=256, out_features=16, bias=True)
        (dropout): Dropout(p=0.5)
      )
      (3): DenseAttentionAggregator(
        (att_x): Sequential(
          (0): Linear(in_features=256, out_features=32, bias=True)
          (1): Tanh()
          (2): Linear(in_features=32, out_features=32, bias=True)
        )
        (att_neigh): Sequential(
          (0): Linear(in_features=256, out_features=32, bias=True)
          (1): Tanh()
          (2): Linear(in_features=32, out_features=32, bias=True)
        )
        (fc_value): Linear(in_features=256, out_features=16, bias=True)
        (fc_x): Linear(in_features=256, out_features=16, bias=True)
        (dropout): Dropout(p=0.5)
      )
    )
    (mp_agg): MetapathAttentionLayer (320 -> 320)
    (fc): Linear(in_features=320, out_features=4, bias=True)
  )
)
[1.]
{"epoch":0,"time":0.49584,"train_loss":1.37768}
{"epoch":0,"val_loss":1.3704,"val_metric":{"accuracy":0.28304,"micro":0.28304,"macro":0.1103},"test_metric":{"accuracy":0.2931,"micro":0.2931,"macro":0.11333},"tolerance:":0}
[1.]
{"epoch":1,"time":0.90939,"train_loss":1.37359}
{"epoch":1,"val_loss":1.36562,"val_metric":{"accuracy":0.28304,"micro":0.28304,"macro":0.1103},"test_metric":{"accuracy":0.2931,"micro":0.2931,"macro":0.11333},"tolerance:":0}
…
