NodeProblem: loading started
loading edge embedding for APA complete, num of embeddings: 7586
loading edge embedding for APAPA complete, num of embeddings: 22381
loading edge embedding for APCPA complete, num of embeddings: 2502277
0.44872806400000004
NodeProblem: loading finished
Let's use 2 GPUs!
DataParallel(
  (module): HINGCN_GS(
    (prep): LinearPrep(
      (fc): Linear(in_features=8920, out_features=2048, bias=False)
    )
    (agg_0_0): ModuleList(
      (0): AttentionAggregator2(
        (att): Sequential(
          (0): Linear(in_features=2048, out_features=512, bias=False)
          (1): Tanh()
          (2): Linear(in_features=512, out_features=512, bias=False)
        )
        (att2): Sequential(
          (0): Linear(in_features=2066, out_features=512, bias=False)
          (1): Tanh()
          (2): Linear(in_features=512, out_features=512, bias=False)
        )
        (fc_x): Linear(in_features=2048, out_features=64, bias=False)
        (fc_neib): Linear(in_features=2066, out_features=64, bias=False)
        (dropout): Dropout(p=0.5)
      )
      (1): AttentionAggregator2(
        (att): Sequential(
          (0): Linear(in_features=2048, out_features=512, bias=False)
          (1): Tanh()
          (2): Linear(in_features=512, out_features=512, bias=False)
        )
        (att2): Sequential(
          (0): Linear(in_features=2066, out_features=512, bias=False)
          (1): Tanh()
          (2): Linear(in_features=512, out_features=512, bias=False)
        )
        (fc_x): Linear(in_features=2048, out_features=64, bias=False)
        (fc_neib): Linear(in_features=2066, out_features=64, bias=False)
        (dropout): Dropout(p=0.5)
      )
      (2): AttentionAggregator2(
        (att): Sequential(
          (0): Linear(in_features=2048, out_features=512, bias=False)
          (1): Tanh()
          (2): Linear(in_features=512, out_features=512, bias=False)
        )
        (att2): Sequential(
          (0): Linear(in_features=2066, out_features=512, bias=False)
          (1): Tanh()
          (2): Linear(in_features=512, out_features=512, bias=False)
        )
        (fc_x): Linear(in_features=2048, out_features=64, bias=False)
        (fc_neib): Linear(in_features=2066, out_features=64, bias=False)
        (dropout): Dropout(p=0.5)
      )
      (3): AttentionAggregator2(
        (att): Sequential(
          (0): Linear(in_features=2048, out_features=512, bias=False)
          (1): Tanh()
          (2): Linear(in_features=512, out_features=512, bias=False)
        )
        (att2): Sequential(
          (0): Linear(in_features=2066, out_features=512, bias=False)
          (1): Tanh()
          (2): Linear(in_features=512, out_features=512, bias=False)
        )
        (fc_x): Linear(in_features=2048, out_features=64, bias=False)
        (fc_neib): Linear(in_features=2066, out_features=64, bias=False)
        (dropout): Dropout(p=0.5)
      )
      (4): AttentionAggregator2(
        (att): Sequential(
          (0): Linear(in_features=2048, out_features=512, bias=False)
          (1): Tanh()
          (2): Linear(in_features=512, out_features=512, bias=False)
        )
        (att2): Sequential(
          (0): Linear(in_features=2066, out_features=512, bias=False)
          (1): Tanh()
          (2): Linear(in_features=512, out_features=512, bias=False)
        )
        (fc_x): Linear(in_features=2048, out_features=64, bias=False)
        (fc_neib): Linear(in_features=2066, out_features=64, bias=False)
        (dropout): Dropout(p=0.5)
      )
      (5): AttentionAggregator2(
        (att): Sequential(
          (0): Linear(in_features=2048, out_features=512, bias=False)
          (1): Tanh()
          (2): Linear(in_features=512, out_features=512, bias=False)
        )
        (att2): Sequential(
          (0): Linear(in_features=2066, out_features=512, bias=False)
          (1): Tanh()
          (2): Linear(in_features=512, out_features=512, bias=False)
        )
        (fc_x): Linear(in_features=2048, out_features=64, bias=False)
        (fc_neib): Linear(in_features=2066, out_features=64, bias=False)
        (dropout): Dropout(p=0.5)
      )
      (6): AttentionAggregator2(
        (att): Sequential(
          (0): Linear(in_features=2048, out_features=512, bias=False)
          (1): Tanh()
          (2): Linear(in_features=512, out_features=512, bias=False)
        )
        (att2): Sequential(
          (0): Linear(in_features=2066, out_features=512, bias=False)
          (1): Tanh()
          (2): Linear(in_features=512, out_features=512, bias=False)
        )
        (fc_x): Linear(in_features=2048, out_features=64, bias=False)
        (fc_neib): Linear(in_features=2066, out_features=64, bias=False)
        (dropout): Dropout(p=0.5)
      )
      (7): AttentionAggregator2(
        (att): Sequential(
          (0): Linear(in_features=2048, out_features=512, bias=False)
          (1): Tanh()
          (2): Linear(in_features=512, out_features=512, bias=False)
        )
        (att2): Sequential(
          (0): Linear(in_features=2066, out_features=512, bias=False)
          (1): Tanh()
          (2): Linear(in_features=512, out_features=512, bias=False)
        )
        (fc_x): Linear(in_features=2048, out_features=64, bias=False)
        (fc_neib): Linear(in_features=2066, out_features=64, bias=False)
        (dropout): Dropout(p=0.5)
      )
    )
    (edge_0_0): IdEdgeAggregator(
      (dropout): Dropout(p=0.5)
    )
    (agg_1_0): ModuleList(
      (0): AttentionAggregator2(
        (att): Sequential(
          (0): Linear(in_features=2048, out_features=512, bias=False)
          (1): Tanh()
          (2): Linear(in_features=512, out_features=512, bias=False)
        )
        (att2): Sequential(
          (0): Linear(in_features=2066, out_features=512, bias=False)
          (1): Tanh()
          (2): Linear(in_features=512, out_features=512, bias=False)
        )
        (fc_x): Linear(in_features=2048, out_features=64, bias=False)
        (fc_neib): Linear(in_features=2066, out_features=64, bias=False)
        (dropout): Dropout(p=0.5)
      )
      (1): AttentionAggregator2(
        (att): Sequential(
          (0): Linear(in_features=2048, out_features=512, bias=False)
          (1): Tanh()
          (2): Linear(in_features=512, out_features=512, bias=False)
        )
        (att2): Sequential(
          (0): Linear(in_features=2066, out_features=512, bias=False)
          (1): Tanh()
          (2): Linear(in_features=512, out_features=512, bias=False)
        )
        (fc_x): Linear(in_features=2048, out_features=64, bias=False)
        (fc_neib): Linear(in_features=2066, out_features=64, bias=False)
        (dropout): Dropout(p=0.5)
      )
      (2): AttentionAggregator2(
        (att): Sequential(
          (0): Linear(in_features=2048, out_features=512, bias=False)
          (1): Tanh()
          (2): Linear(in_features=512, out_features=512, bias=False)
        )
        (att2): Sequential(
          (0): Linear(in_features=2066, out_features=512, bias=False)
          (1): Tanh()
          (2): Linear(in_features=512, out_features=512, bias=False)
        )
        (fc_x): Linear(in_features=2048, out_features=64, bias=False)
        (fc_neib): Linear(in_features=2066, out_features=64, bias=False)
        (dropout): Dropout(p=0.5)
      )
      (3): AttentionAggregator2(
        (att): Sequential(
          (0): Linear(in_features=2048, out_features=512, bias=False)
          (1): Tanh()
          (2): Linear(in_features=512, out_features=512, bias=False)
        )
        (att2): Sequential(
          (0): Linear(in_features=2066, out_features=512, bias=False)
          (1): Tanh()
          (2): Linear(in_features=512, out_features=512, bias=False)
        )
        (fc_x): Linear(in_features=2048, out_features=64, bias=False)
        (fc_neib): Linear(in_features=2066, out_features=64, bias=False)
        (dropout): Dropout(p=0.5)
      )
      (4): AttentionAggregator2(
        (att): Sequential(
          (0): Linear(in_features=2048, out_features=512, bias=False)
          (1): Tanh()
          (2): Linear(in_features=512, out_features=512, bias=False)
        )
        (att2): Sequential(
          (0): Linear(in_features=2066, out_features=512, bias=False)
          (1): Tanh()
          (2): Linear(in_features=512, out_features=512, bias=False)
        )
        (fc_x): Linear(in_features=2048, out_features=64, bias=False)
        (fc_neib): Linear(in_features=2066, out_features=64, bias=False)
        (dropout): Dropout(p=0.5)
      )
      (5): AttentionAggregator2(
        (att): Sequential(
          (0): Linear(in_features=2048, out_features=512, bias=False)
          (1): Tanh()
          (2): Linear(in_features=512, out_features=512, bias=False)
        )
        (att2): Sequential(
          (0): Linear(in_features=2066, out_features=512, bias=False)
          (1): Tanh()
          (2): Linear(in_features=512, out_features=512, bias=False)
        )
        (fc_x): Linear(in_features=2048, out_features=64, bias=False)
        (fc_neib): Linear(in_features=2066, out_features=64, bias=False)
        (dropout): Dropout(p=0.5)
      )
      (6): AttentionAggregator2(
        (att): Sequential(
          (0): Linear(in_features=2048, out_features=512, bias=False)
          (1): Tanh()
          (2): Linear(in_features=512, out_features=512, bias=False)
        )
        (att2): Sequential(
          (0): Linear(in_features=2066, out_features=512, bias=False)
          (1): Tanh()
          (2): Linear(in_features=512, out_features=512, bias=False)
        )
        (fc_x): Linear(in_features=2048, out_features=64, bias=False)
        (fc_neib): Linear(in_features=2066, out_features=64, bias=False)
        (dropout): Dropout(p=0.5)
      )
      (7): AttentionAggregator2(
        (att): Sequential(
          (0): Linear(in_features=2048, out_features=512, bias=False)
          (1): Tanh()
          (2): Linear(in_features=512, out_features=512, bias=False)
        )
        (att2): Sequential(
          (0): Linear(in_features=2066, out_features=512, bias=False)
          (1): Tanh()
          (2): Linear(in_features=512, out_features=512, bias=False)
        )
        (fc_x): Linear(in_features=2048, out_features=64, bias=False)
        (fc_neib): Linear(in_features=2066, out_features=64, bias=False)
        (dropout): Dropout(p=0.5)
      )
    )
    (edge_1_0): IdEdgeAggregator(
      (dropout): Dropout(p=0.5)
    )
    (agg_2_0): ModuleList(
      (0): AttentionAggregator2(
        (att): Sequential(
          (0): Linear(in_features=2048, out_features=512, bias=False)
          (1): Tanh()
          (2): Linear(in_features=512, out_features=512, bias=False)
        )
        (att2): Sequential(
          (0): Linear(in_features=2066, out_features=512, bias=False)
          (1): Tanh()
          (2): Linear(in_features=512, out_features=512, bias=False)
        )
        (fc_x): Linear(in_features=2048, out_features=64, bias=False)
        (fc_neib): Linear(in_features=2066, out_features=64, bias=False)
        (dropout): Dropout(p=0.5)
      )
      (1): AttentionAggregator2(
        (att): Sequential(
          (0): Linear(in_features=2048, out_features=512, bias=False)
          (1): Tanh()
          (2): Linear(in_features=512, out_features=512, bias=False)
        )
        (att2): Sequential(
          (0): Linear(in_features=2066, out_features=512, bias=False)
          (1): Tanh()
          (2): Linear(in_features=512, out_features=512, bias=False)
        )
        (fc_x): Linear(in_features=2048, out_features=64, bias=False)
        (fc_neib): Linear(in_features=2066, out_features=64, bias=False)
        (dropout): Dropout(p=0.5)
      )
      (2): AttentionAggregator2(
        (att): Sequential(
          (0): Linear(in_features=2048, out_features=512, bias=False)
          (1): Tanh()
          (2): Linear(in_features=512, out_features=512, bias=False)
        )
        (att2): Sequential(
          (0): Linear(in_features=2066, out_features=512, bias=False)
          (1): Tanh()
          (2): Linear(in_features=512, out_features=512, bias=False)
        )
        (fc_x): Linear(in_features=2048, out_features=64, bias=False)
        (fc_neib): Linear(in_features=2066, out_features=64, bias=False)
        (dropout): Dropout(p=0.5)
      )
      (3): AttentionAggregator2(
        (att): Sequential(
          (0): Linear(in_features=2048, out_features=512, bias=False)
          (1): Tanh()
          (2): Linear(in_features=512, out_features=512, bias=False)
        )
        (att2): Sequential(
          (0): Linear(in_features=2066, out_features=512, bias=False)
          (1): Tanh()
          (2): Linear(in_features=512, out_features=512, bias=False)
        )
        (fc_x): Linear(in_features=2048, out_features=64, bias=False)
        (fc_neib): Linear(in_features=2066, out_features=64, bias=False)
        (dropout): Dropout(p=0.5)
      )
      (4): AttentionAggregator2(
        (att): Sequential(
          (0): Linear(in_features=2048, out_features=512, bias=False)
          (1): Tanh()
          (2): Linear(in_features=512, out_features=512, bias=False)
        )
        (att2): Sequential(
          (0): Linear(in_features=2066, out_features=512, bias=False)
          (1): Tanh()
          (2): Linear(in_features=512, out_features=512, bias=False)
        )
        (fc_x): Linear(in_features=2048, out_features=64, bias=False)
        (fc_neib): Linear(in_features=2066, out_features=64, bias=False)
        (dropout): Dropout(p=0.5)
      )
      (5): AttentionAggregator2(
        (att): Sequential(
          (0): Linear(in_features=2048, out_features=512, bias=False)
          (1): Tanh()
          (2): Linear(in_features=512, out_features=512, bias=False)
        )
        (att2): Sequential(
          (0): Linear(in_features=2066, out_features=512, bias=False)
          (1): Tanh()
          (2): Linear(in_features=512, out_features=512, bias=False)
        )
        (fc_x): Linear(in_features=2048, out_features=64, bias=False)
        (fc_neib): Linear(in_features=2066, out_features=64, bias=False)
        (dropout): Dropout(p=0.5)
      )
      (6): AttentionAggregator2(
        (att): Sequential(
          (0): Linear(in_features=2048, out_features=512, bias=False)
          (1): Tanh()
          (2): Linear(in_features=512, out_features=512, bias=False)
        )
        (att2): Sequential(
          (0): Linear(in_features=2066, out_features=512, bias=False)
          (1): Tanh()
          (2): Linear(in_features=512, out_features=512, bias=False)
        )
        (fc_x): Linear(in_features=2048, out_features=64, bias=False)
        (fc_neib): Linear(in_features=2066, out_features=64, bias=False)
        (dropout): Dropout(p=0.5)
      )
      (7): AttentionAggregator2(
        (att): Sequential(
          (0): Linear(in_features=2048, out_features=512, bias=False)
          (1): Tanh()
          (2): Linear(in_features=512, out_features=512, bias=False)
        )
        (att2): Sequential(
          (0): Linear(in_features=2066, out_features=512, bias=False)
          (1): Tanh()
          (2): Linear(in_features=512, out_features=512, bias=False)
        )
        (fc_x): Linear(in_features=2048, out_features=64, bias=False)
        (fc_neib): Linear(in_features=2066, out_features=64, bias=False)
        (dropout): Dropout(p=0.5)
      )
    )
    (edge_2_0): IdEdgeAggregator(
      (dropout): Dropout(p=0.5)
    )
    (mp_agg): MetapathGateLayer (512 -> 512)
    (fc): Sequential(
      (0): Linear(in_features=512, out_features=32, bias=True)
      (1): ReLU()
      (2): Dropout(p=0.5)
      (3): Linear(in_features=32, out_features=4, bias=True)
    )
  )
)
{"epoch":0,"time":64.73753,"train_loss":283.46777}
{"epoch":0,"val_loss":280.18044,"val_metric":{"accuracy":0.38262,"micro":0.38262,"macro":0.26597},"test_metric":{"accuracy":0.37685,"micro":0.37685,"macro":0.25795},"tolerance:":0}
{"epoch":1,"time":177.59771,"train_loss":253.85308}
{"epoch":1,"val_loss":220.76141,"val_metric":{"accuracy":0.64449,"micro":0.64449,"macro":0.55094},"test_metric":{"accuracy":0.61576,"micro":0.61576,"macro":0.52164},"tolerance:":0}
…
