NodeProblem: loading started
loading edge embedding for APA complete, num of embeddings: 7586
loading edge embedding for APAPA complete, num of embeddings: 22381
loading edge embedding for APCPA complete, num of embeddings: 2502277
0.44872806400000004
NodeProblem: loading finished
Let's use 2 GPUs!
DataParallel(
  (module): HINGCN_GS(
    (prep): LinearPrep(
      (fc): Linear(in_features=8920, out_features=2048, bias=False)
    )
    (agg_0_0): ModuleList(
      (0): AttentionAggregator2(
        (att): Sequential(
          (0): Linear(in_features=2048, out_features=512, bias=False)
          (1): Tanh()
          (2): Linear(in_features=512, out_features=512, bias=False)
        )
        (att2): Sequential(
          (0): Linear(in_features=2066, out_features=512, bias=False)
          (1): Tanh()
          (2): Linear(in_features=512, out_features=512, bias=False)
        )
        (fc_x): Linear(in_features=2048, out_features=256, bias=False)
        (fc_neib): Linear(in_features=2066, out_features=256, bias=False)
        (dropout): Dropout(p=0.0)
      )
      (1): AttentionAggregator2(
        (att): Sequential(
          (0): Linear(in_features=2048, out_features=512, bias=False)
          (1): Tanh()
          (2): Linear(in_features=512, out_features=512, bias=False)
        )
        (att2): Sequential(
          (0): Linear(in_features=2066, out_features=512, bias=False)
          (1): Tanh()
          (2): Linear(in_features=512, out_features=512, bias=False)
        )
        (fc_x): Linear(in_features=2048, out_features=256, bias=False)
        (fc_neib): Linear(in_features=2066, out_features=256, bias=False)
        (dropout): Dropout(p=0.0)
      )
      (2): AttentionAggregator2(
        (att): Sequential(
          (0): Linear(in_features=2048, out_features=512, bias=False)
          (1): Tanh()
          (2): Linear(in_features=512, out_features=512, bias=False)
        )
        (att2): Sequential(
          (0): Linear(in_features=2066, out_features=512, bias=False)
          (1): Tanh()
          (2): Linear(in_features=512, out_features=512, bias=False)
        )
        (fc_x): Linear(in_features=2048, out_features=256, bias=False)
        (fc_neib): Linear(in_features=2066, out_features=256, bias=False)
        (dropout): Dropout(p=0.0)
      )
      (3): AttentionAggregator2(
        (att): Sequential(
          (0): Linear(in_features=2048, out_features=512, bias=False)
          (1): Tanh()
          (2): Linear(in_features=512, out_features=512, bias=False)
        )
        (att2): Sequential(
          (0): Linear(in_features=2066, out_features=512, bias=False)
          (1): Tanh()
          (2): Linear(in_features=512, out_features=512, bias=False)
        )
        (fc_x): Linear(in_features=2048, out_features=256, bias=False)
        (fc_neib): Linear(in_features=2066, out_features=256, bias=False)
        (dropout): Dropout(p=0.0)
      )
    )
    (edge_0_0): IdEdgeAggregator(
      (dropout): Dropout(p=0.0)
    )
    (agg_1_0): ModuleList(
      (0): AttentionAggregator2(
        (att): Sequential(
          (0): Linear(in_features=2048, out_features=512, bias=False)
          (1): Tanh()
          (2): Linear(in_features=512, out_features=512, bias=False)
        )
        (att2): Sequential(
          (0): Linear(in_features=2066, out_features=512, bias=False)
          (1): Tanh()
          (2): Linear(in_features=512, out_features=512, bias=False)
        )
        (fc_x): Linear(in_features=2048, out_features=256, bias=False)
        (fc_neib): Linear(in_features=2066, out_features=256, bias=False)
        (dropout): Dropout(p=0.0)
      )
      (1): AttentionAggregator2(
        (att): Sequential(
          (0): Linear(in_features=2048, out_features=512, bias=False)
          (1): Tanh()
          (2): Linear(in_features=512, out_features=512, bias=False)
        )
        (att2): Sequential(
          (0): Linear(in_features=2066, out_features=512, bias=False)
          (1): Tanh()
          (2): Linear(in_features=512, out_features=512, bias=False)
        )
        (fc_x): Linear(in_features=2048, out_features=256, bias=False)
        (fc_neib): Linear(in_features=2066, out_features=256, bias=False)
        (dropout): Dropout(p=0.0)
      )
      (2): AttentionAggregator2(
        (att): Sequential(
          (0): Linear(in_features=2048, out_features=512, bias=False)
          (1): Tanh()
          (2): Linear(in_features=512, out_features=512, bias=False)
        )
        (att2): Sequential(
          (0): Linear(in_features=2066, out_features=512, bias=False)
          (1): Tanh()
          (2): Linear(in_features=512, out_features=512, bias=False)
        )
        (fc_x): Linear(in_features=2048, out_features=256, bias=False)
        (fc_neib): Linear(in_features=2066, out_features=256, bias=False)
        (dropout): Dropout(p=0.0)
      )
      (3): AttentionAggregator2(
        (att): Sequential(
          (0): Linear(in_features=2048, out_features=512, bias=False)
          (1): Tanh()
          (2): Linear(in_features=512, out_features=512, bias=False)
        )
        (att2): Sequential(
          (0): Linear(in_features=2066, out_features=512, bias=False)
          (1): Tanh()
          (2): Linear(in_features=512, out_features=512, bias=False)
        )
        (fc_x): Linear(in_features=2048, out_features=256, bias=False)
        (fc_neib): Linear(in_features=2066, out_features=256, bias=False)
        (dropout): Dropout(p=0.0)
      )
    )
    (edge_1_0): IdEdgeAggregator(
      (dropout): Dropout(p=0.0)
    )
    (agg_2_0): ModuleList(
      (0): AttentionAggregator2(
        (att): Sequential(
          (0): Linear(in_features=2048, out_features=512, bias=False)
          (1): Tanh()
          (2): Linear(in_features=512, out_features=512, bias=False)
        )
        (att2): Sequential(
          (0): Linear(in_features=2066, out_features=512, bias=False)
          (1): Tanh()
          (2): Linear(in_features=512, out_features=512, bias=False)
        )
        (fc_x): Linear(in_features=2048, out_features=256, bias=False)
        (fc_neib): Linear(in_features=2066, out_features=256, bias=False)
        (dropout): Dropout(p=0.0)
      )
      (1): AttentionAggregator2(
        (att): Sequential(
          (0): Linear(in_features=2048, out_features=512, bias=False)
          (1): Tanh()
          (2): Linear(in_features=512, out_features=512, bias=False)
        )
        (att2): Sequential(
          (0): Linear(in_features=2066, out_features=512, bias=False)
          (1): Tanh()
          (2): Linear(in_features=512, out_features=512, bias=False)
        )
        (fc_x): Linear(in_features=2048, out_features=256, bias=False)
        (fc_neib): Linear(in_features=2066, out_features=256, bias=False)
        (dropout): Dropout(p=0.0)
      )
      (2): AttentionAggregator2(
        (att): Sequential(
          (0): Linear(in_features=2048, out_features=512, bias=False)
          (1): Tanh()
          (2): Linear(in_features=512, out_features=512, bias=False)
        )
        (att2): Sequential(
          (0): Linear(in_features=2066, out_features=512, bias=False)
          (1): Tanh()
          (2): Linear(in_features=512, out_features=512, bias=False)
        )
        (fc_x): Linear(in_features=2048, out_features=256, bias=False)
        (fc_neib): Linear(in_features=2066, out_features=256, bias=False)
        (dropout): Dropout(p=0.0)
      )
      (3): AttentionAggregator2(
        (att): Sequential(
          (0): Linear(in_features=2048, out_features=512, bias=False)
          (1): Tanh()
          (2): Linear(in_features=512, out_features=512, bias=False)
        )
        (att2): Sequential(
          (0): Linear(in_features=2066, out_features=512, bias=False)
          (1): Tanh()
          (2): Linear(in_features=512, out_features=512, bias=False)
        )
        (fc_x): Linear(in_features=2048, out_features=256, bias=False)
        (fc_neib): Linear(in_features=2066, out_features=256, bias=False)
        (dropout): Dropout(p=0.0)
      )
    )
    (edge_2_0): IdEdgeAggregator(
      (dropout): Dropout(p=0.0)
    )
    (mp_agg): MetapathGateLayer (1024 -> 1024)
    (fc): Sequential(
      (0): Linear(in_features=1024, out_features=32, bias=True)
      (1): ReLU()
      (2): Dropout(p=0.0)
      (3): Linear(in_features=32, out_features=4, bias=True)
    )
  )
)
{"epoch":0,"time":19.73162,"train_loss":62.75487}
{"epoch":0,"val_loss":295.32793,"val_metric":{"accuracy":0.62359,"micro":0.62359,"macro":0.51262},"test_metric":{"accuracy":0.62315,"micro":0.62315,"macro":0.51352},"tolerance:":0}
{"epoch":1,"time":169.05657,"train_loss":23.41268}
{"epoch":1,"val_loss":160.74833,"val_metric":{"accuracy":0.85211,"micro":0.85211,"macro":0.84379},"test_metric":{"accuracy":0.83128,"micro":0.83128,"macro":0.82049},"tolerance:":0}
…
