NodeProblem: loading started
loading edge embedding for APA complete, num of embeddings: 7586
loading edge embedding for APAPA complete, num of embeddings: 22381
loading edge embedding for APCPA complete, num of embeddings: 2502277
0.44872806400000004
NodeProblem: loading finished
Let's use 2 GPUs!
DataParallel(
  (module): HINGCN_GS(
    (prep): LinearPrep(
      (fc): Linear(in_features=8920, out_features=32, bias=False)
    )
    (agg_0_0): ModuleList(
      (0): AttentionAggregator2(
        (att): Sequential(
          (0): Linear(in_features=32, out_features=32, bias=False)
          (1): Tanh()
          (2): Linear(in_features=32, out_features=32, bias=False)
        )
        (att2): Sequential(
          (0): Linear(in_features=50, out_features=32, bias=False)
          (1): Tanh()
          (2): Linear(in_features=32, out_features=32, bias=False)
        )
        (fc_x): Linear(in_features=32, out_features=64, bias=False)
        (fc_neib): Linear(in_features=50, out_features=64, bias=False)
        (dropout): Dropout(p=0.5)
      )
      (1): AttentionAggregator2(
        (att): Sequential(
          (0): Linear(in_features=32, out_features=32, bias=False)
          (1): Tanh()
          (2): Linear(in_features=32, out_features=32, bias=False)
        )
        (att2): Sequential(
          (0): Linear(in_features=50, out_features=32, bias=False)
          (1): Tanh()
          (2): Linear(in_features=32, out_features=32, bias=False)
        )
        (fc_x): Linear(in_features=32, out_features=64, bias=False)
        (fc_neib): Linear(in_features=50, out_features=64, bias=False)
        (dropout): Dropout(p=0.5)
      )
      (2): AttentionAggregator2(
        (att): Sequential(
          (0): Linear(in_features=32, out_features=32, bias=False)
          (1): Tanh()
          (2): Linear(in_features=32, out_features=32, bias=False)
        )
        (att2): Sequential(
          (0): Linear(in_features=50, out_features=32, bias=False)
          (1): Tanh()
          (2): Linear(in_features=32, out_features=32, bias=False)
        )
        (fc_x): Linear(in_features=32, out_features=64, bias=False)
        (fc_neib): Linear(in_features=50, out_features=64, bias=False)
        (dropout): Dropout(p=0.5)
      )
      (3): AttentionAggregator2(
        (att): Sequential(
          (0): Linear(in_features=32, out_features=32, bias=False)
          (1): Tanh()
          (2): Linear(in_features=32, out_features=32, bias=False)
        )
        (att2): Sequential(
          (0): Linear(in_features=50, out_features=32, bias=False)
          (1): Tanh()
          (2): Linear(in_features=32, out_features=32, bias=False)
        )
        (fc_x): Linear(in_features=32, out_features=64, bias=False)
        (fc_neib): Linear(in_features=50, out_features=64, bias=False)
        (dropout): Dropout(p=0.5)
      )
      (4): AttentionAggregator2(
        (att): Sequential(
          (0): Linear(in_features=32, out_features=32, bias=False)
          (1): Tanh()
          (2): Linear(in_features=32, out_features=32, bias=False)
        )
        (att2): Sequential(
          (0): Linear(in_features=50, out_features=32, bias=False)
          (1): Tanh()
          (2): Linear(in_features=32, out_features=32, bias=False)
        )
        (fc_x): Linear(in_features=32, out_features=64, bias=False)
        (fc_neib): Linear(in_features=50, out_features=64, bias=False)
        (dropout): Dropout(p=0.5)
      )
      (5): AttentionAggregator2(
        (att): Sequential(
          (0): Linear(in_features=32, out_features=32, bias=False)
          (1): Tanh()
          (2): Linear(in_features=32, out_features=32, bias=False)
        )
        (att2): Sequential(
          (0): Linear(in_features=50, out_features=32, bias=False)
          (1): Tanh()
          (2): Linear(in_features=32, out_features=32, bias=False)
        )
        (fc_x): Linear(in_features=32, out_features=64, bias=False)
        (fc_neib): Linear(in_features=50, out_features=64, bias=False)
        (dropout): Dropout(p=0.5)
      )
      (6): AttentionAggregator2(
        (att): Sequential(
          (0): Linear(in_features=32, out_features=32, bias=False)
          (1): Tanh()
          (2): Linear(in_features=32, out_features=32, bias=False)
        )
        (att2): Sequential(
          (0): Linear(in_features=50, out_features=32, bias=False)
          (1): Tanh()
          (2): Linear(in_features=32, out_features=32, bias=False)
        )
        (fc_x): Linear(in_features=32, out_features=64, bias=False)
        (fc_neib): Linear(in_features=50, out_features=64, bias=False)
        (dropout): Dropout(p=0.5)
      )
      (7): AttentionAggregator2(
        (att): Sequential(
          (0): Linear(in_features=32, out_features=32, bias=False)
          (1): Tanh()
          (2): Linear(in_features=32, out_features=32, bias=False)
        )
        (att2): Sequential(
          (0): Linear(in_features=50, out_features=32, bias=False)
          (1): Tanh()
          (2): Linear(in_features=32, out_features=32, bias=False)
        )
        (fc_x): Linear(in_features=32, out_features=64, bias=False)
        (fc_neib): Linear(in_features=50, out_features=64, bias=False)
        (dropout): Dropout(p=0.5)
      )
    )
    (edge_0_0): IdEdgeAggregator(
      (dropout): Dropout(p=0.5)
    )
    (agg_1_0): ModuleList(
      (0): AttentionAggregator2(
        (att): Sequential(
          (0): Linear(in_features=32, out_features=32, bias=False)
          (1): Tanh()
          (2): Linear(in_features=32, out_features=32, bias=False)
        )
        (att2): Sequential(
          (0): Linear(in_features=50, out_features=32, bias=False)
          (1): Tanh()
          (2): Linear(in_features=32, out_features=32, bias=False)
        )
        (fc_x): Linear(in_features=32, out_features=64, bias=False)
        (fc_neib): Linear(in_features=50, out_features=64, bias=False)
        (dropout): Dropout(p=0.5)
      )
      (1): AttentionAggregator2(
        (att): Sequential(
          (0): Linear(in_features=32, out_features=32, bias=False)
          (1): Tanh()
          (2): Linear(in_features=32, out_features=32, bias=False)
        )
        (att2): Sequential(
          (0): Linear(in_features=50, out_features=32, bias=False)
          (1): Tanh()
          (2): Linear(in_features=32, out_features=32, bias=False)
        )
        (fc_x): Linear(in_features=32, out_features=64, bias=False)
        (fc_neib): Linear(in_features=50, out_features=64, bias=False)
        (dropout): Dropout(p=0.5)
      )
      (2): AttentionAggregator2(
        (att): Sequential(
          (0): Linear(in_features=32, out_features=32, bias=False)
          (1): Tanh()
          (2): Linear(in_features=32, out_features=32, bias=False)
        )
        (att2): Sequential(
          (0): Linear(in_features=50, out_features=32, bias=False)
          (1): Tanh()
          (2): Linear(in_features=32, out_features=32, bias=False)
        )
        (fc_x): Linear(in_features=32, out_features=64, bias=False)
        (fc_neib): Linear(in_features=50, out_features=64, bias=False)
        (dropout): Dropout(p=0.5)
      )
      (3): AttentionAggregator2(
        (att): Sequential(
          (0): Linear(in_features=32, out_features=32, bias=False)
          (1): Tanh()
          (2): Linear(in_features=32, out_features=32, bias=False)
        )
        (att2): Sequential(
          (0): Linear(in_features=50, out_features=32, bias=False)
          (1): Tanh()
          (2): Linear(in_features=32, out_features=32, bias=False)
        )
        (fc_x): Linear(in_features=32, out_features=64, bias=False)
        (fc_neib): Linear(in_features=50, out_features=64, bias=False)
        (dropout): Dropout(p=0.5)
      )
      (4): AttentionAggregator2(
        (att): Sequential(
          (0): Linear(in_features=32, out_features=32, bias=False)
          (1): Tanh()
          (2): Linear(in_features=32, out_features=32, bias=False)
        )
        (att2): Sequential(
          (0): Linear(in_features=50, out_features=32, bias=False)
          (1): Tanh()
          (2): Linear(in_features=32, out_features=32, bias=False)
        )
        (fc_x): Linear(in_features=32, out_features=64, bias=False)
        (fc_neib): Linear(in_features=50, out_features=64, bias=False)
        (dropout): Dropout(p=0.5)
      )
      (5): AttentionAggregator2(
        (att): Sequential(
          (0): Linear(in_features=32, out_features=32, bias=False)
          (1): Tanh()
          (2): Linear(in_features=32, out_features=32, bias=False)
        )
        (att2): Sequential(
          (0): Linear(in_features=50, out_features=32, bias=False)
          (1): Tanh()
          (2): Linear(in_features=32, out_features=32, bias=False)
        )
        (fc_x): Linear(in_features=32, out_features=64, bias=False)
        (fc_neib): Linear(in_features=50, out_features=64, bias=False)
        (dropout): Dropout(p=0.5)
      )
      (6): AttentionAggregator2(
        (att): Sequential(
          (0): Linear(in_features=32, out_features=32, bias=False)
          (1): Tanh()
          (2): Linear(in_features=32, out_features=32, bias=False)
        )
        (att2): Sequential(
          (0): Linear(in_features=50, out_features=32, bias=False)
          (1): Tanh()
          (2): Linear(in_features=32, out_features=32, bias=False)
        )
        (fc_x): Linear(in_features=32, out_features=64, bias=False)
        (fc_neib): Linear(in_features=50, out_features=64, bias=False)
        (dropout): Dropout(p=0.5)
      )
      (7): AttentionAggregator2(
        (att): Sequential(
          (0): Linear(in_features=32, out_features=32, bias=False)
          (1): Tanh()
          (2): Linear(in_features=32, out_features=32, bias=False)
        )
        (att2): Sequential(
          (0): Linear(in_features=50, out_features=32, bias=False)
          (1): Tanh()
          (2): Linear(in_features=32, out_features=32, bias=False)
        )
        (fc_x): Linear(in_features=32, out_features=64, bias=False)
        (fc_neib): Linear(in_features=50, out_features=64, bias=False)
        (dropout): Dropout(p=0.5)
      )
    )
    (edge_1_0): IdEdgeAggregator(
      (dropout): Dropout(p=0.5)
    )
    (agg_2_0): ModuleList(
      (0): AttentionAggregator2(
        (att): Sequential(
          (0): Linear(in_features=32, out_features=32, bias=False)
          (1): Tanh()
          (2): Linear(in_features=32, out_features=32, bias=False)
        )
        (att2): Sequential(
          (0): Linear(in_features=50, out_features=32, bias=False)
          (1): Tanh()
          (2): Linear(in_features=32, out_features=32, bias=False)
        )
        (fc_x): Linear(in_features=32, out_features=64, bias=False)
        (fc_neib): Linear(in_features=50, out_features=64, bias=False)
        (dropout): Dropout(p=0.5)
      )
      (1): AttentionAggregator2(
        (att): Sequential(
          (0): Linear(in_features=32, out_features=32, bias=False)
          (1): Tanh()
          (2): Linear(in_features=32, out_features=32, bias=False)
        )
        (att2): Sequential(
          (0): Linear(in_features=50, out_features=32, bias=False)
          (1): Tanh()
          (2): Linear(in_features=32, out_features=32, bias=False)
        )
        (fc_x): Linear(in_features=32, out_features=64, bias=False)
        (fc_neib): Linear(in_features=50, out_features=64, bias=False)
        (dropout): Dropout(p=0.5)
      )
      (2): AttentionAggregator2(
        (att): Sequential(
          (0): Linear(in_features=32, out_features=32, bias=False)
          (1): Tanh()
          (2): Linear(in_features=32, out_features=32, bias=False)
        )
        (att2): Sequential(
          (0): Linear(in_features=50, out_features=32, bias=False)
          (1): Tanh()
          (2): Linear(in_features=32, out_features=32, bias=False)
        )
        (fc_x): Linear(in_features=32, out_features=64, bias=False)
        (fc_neib): Linear(in_features=50, out_features=64, bias=False)
        (dropout): Dropout(p=0.5)
      )
      (3): AttentionAggregator2(
        (att): Sequential(
          (0): Linear(in_features=32, out_features=32, bias=False)
          (1): Tanh()
          (2): Linear(in_features=32, out_features=32, bias=False)
        )
        (att2): Sequential(
          (0): Linear(in_features=50, out_features=32, bias=False)
          (1): Tanh()
          (2): Linear(in_features=32, out_features=32, bias=False)
        )
        (fc_x): Linear(in_features=32, out_features=64, bias=False)
        (fc_neib): Linear(in_features=50, out_features=64, bias=False)
        (dropout): Dropout(p=0.5)
      )
      (4): AttentionAggregator2(
        (att): Sequential(
          (0): Linear(in_features=32, out_features=32, bias=False)
          (1): Tanh()
          (2): Linear(in_features=32, out_features=32, bias=False)
        )
        (att2): Sequential(
          (0): Linear(in_features=50, out_features=32, bias=False)
          (1): Tanh()
          (2): Linear(in_features=32, out_features=32, bias=False)
        )
        (fc_x): Linear(in_features=32, out_features=64, bias=False)
        (fc_neib): Linear(in_features=50, out_features=64, bias=False)
        (dropout): Dropout(p=0.5)
      )
      (5): AttentionAggregator2(
        (att): Sequential(
          (0): Linear(in_features=32, out_features=32, bias=False)
          (1): Tanh()
          (2): Linear(in_features=32, out_features=32, bias=False)
        )
        (att2): Sequential(
          (0): Linear(in_features=50, out_features=32, bias=False)
          (1): Tanh()
          (2): Linear(in_features=32, out_features=32, bias=False)
        )
        (fc_x): Linear(in_features=32, out_features=64, bias=False)
        (fc_neib): Linear(in_features=50, out_features=64, bias=False)
        (dropout): Dropout(p=0.5)
      )
      (6): AttentionAggregator2(
        (att): Sequential(
          (0): Linear(in_features=32, out_features=32, bias=False)
          (1): Tanh()
          (2): Linear(in_features=32, out_features=32, bias=False)
        )
        (att2): Sequential(
          (0): Linear(in_features=50, out_features=32, bias=False)
          (1): Tanh()
          (2): Linear(in_features=32, out_features=32, bias=False)
        )
        (fc_x): Linear(in_features=32, out_features=64, bias=False)
        (fc_neib): Linear(in_features=50, out_features=64, bias=False)
        (dropout): Dropout(p=0.5)
      )
      (7): AttentionAggregator2(
        (att): Sequential(
          (0): Linear(in_features=32, out_features=32, bias=False)
          (1): Tanh()
          (2): Linear(in_features=32, out_features=32, bias=False)
        )
        (att2): Sequential(
          (0): Linear(in_features=50, out_features=32, bias=False)
          (1): Tanh()
          (2): Linear(in_features=32, out_features=32, bias=False)
        )
        (fc_x): Linear(in_features=32, out_features=64, bias=False)
        (fc_neib): Linear(in_features=50, out_features=64, bias=False)
        (dropout): Dropout(p=0.5)
      )
    )
    (edge_2_0): IdEdgeAggregator(
      (dropout): Dropout(p=0.5)
    )
    (mp_agg): MetapathGateLayer (512 -> 512)
    (fc): Linear(in_features=512, out_features=4, bias=True)
  )
)
{"epoch":0,"time":41.36296,"train_loss":277.28662}
{"epoch":0,"val_loss":275.34445,"val_metric":{"accuracy":0.26186,"micro":0.26186,"macro":0.11064},"test_metric":{"accuracy":0.29187,"micro":0.29187,"macro":0.11664},"tolerance:":0}
{"epoch":1,"time":113.82059,"train_loss":273.70661}
{"epoch":1,"val_loss":269.88089,"val_metric":{"accuracy":0.39248,"micro":0.39248,"macro":0.26056},"test_metric":{"accuracy":0.42241,"micro":0.42241,"macro":0.27133},"tolerance:":0}
…
