NodeProblem: loading started
loading edge embedding for MAM complete, num of embeddings: 129098
loading edge embedding for MDM complete, num of embeddings: 5949
loading edge embedding for MWM complete, num of embeddings: 7100
NodeProblem: loading finished
Let's use 2 GPUs!
DataParallel(
  (module): HINGCN_GS(
    (prep): NodeEmbeddingPrep(
      (embedding): Embedding(3493, 32)
      (fc): Linear(in_features=32, out_features=32, bias=True)
    )
    (agg_0_0): ModuleList(
      (0): AttentionAggregator2(
        (att): Sequential(
          (0): Linear(in_features=32, out_features=512, bias=False)
          (1): Tanh()
          (2): Linear(in_features=512, out_features=512, bias=False)
        )
        (att2): Sequential(
          (0): Linear(in_features=50, out_features=512, bias=False)
          (1): Tanh()
          (2): Linear(in_features=512, out_features=512, bias=False)
        )
        (fc_x): Linear(in_features=32, out_features=64, bias=False)
        (fc_neib): Linear(in_features=50, out_features=64, bias=False)
        (dropout): Dropout(p=0.5)
      )
      (1): AttentionAggregator2(
        (att): Sequential(
          (0): Linear(in_features=32, out_features=512, bias=False)
          (1): Tanh()
          (2): Linear(in_features=512, out_features=512, bias=False)
        )
        (att2): Sequential(
          (0): Linear(in_features=50, out_features=512, bias=False)
          (1): Tanh()
          (2): Linear(in_features=512, out_features=512, bias=False)
        )
        (fc_x): Linear(in_features=32, out_features=64, bias=False)
        (fc_neib): Linear(in_features=50, out_features=64, bias=False)
        (dropout): Dropout(p=0.5)
      )
      (2): AttentionAggregator2(
        (att): Sequential(
          (0): Linear(in_features=32, out_features=512, bias=False)
          (1): Tanh()
          (2): Linear(in_features=512, out_features=512, bias=False)
        )
        (att2): Sequential(
          (0): Linear(in_features=50, out_features=512, bias=False)
          (1): Tanh()
          (2): Linear(in_features=512, out_features=512, bias=False)
        )
        (fc_x): Linear(in_features=32, out_features=64, bias=False)
        (fc_neib): Linear(in_features=50, out_features=64, bias=False)
        (dropout): Dropout(p=0.5)
      )
      (3): AttentionAggregator2(
        (att): Sequential(
          (0): Linear(in_features=32, out_features=512, bias=False)
          (1): Tanh()
          (2): Linear(in_features=512, out_features=512, bias=False)
        )
        (att2): Sequential(
          (0): Linear(in_features=50, out_features=512, bias=False)
          (1): Tanh()
          (2): Linear(in_features=512, out_features=512, bias=False)
        )
        (fc_x): Linear(in_features=32, out_features=64, bias=False)
        (fc_neib): Linear(in_features=50, out_features=64, bias=False)
        (dropout): Dropout(p=0.5)
      )
      (4): AttentionAggregator2(
        (att): Sequential(
          (0): Linear(in_features=32, out_features=512, bias=False)
          (1): Tanh()
          (2): Linear(in_features=512, out_features=512, bias=False)
        )
        (att2): Sequential(
          (0): Linear(in_features=50, out_features=512, bias=False)
          (1): Tanh()
          (2): Linear(in_features=512, out_features=512, bias=False)
        )
        (fc_x): Linear(in_features=32, out_features=64, bias=False)
        (fc_neib): Linear(in_features=50, out_features=64, bias=False)
        (dropout): Dropout(p=0.5)
      )
      (5): AttentionAggregator2(
        (att): Sequential(
          (0): Linear(in_features=32, out_features=512, bias=False)
          (1): Tanh()
          (2): Linear(in_features=512, out_features=512, bias=False)
        )
        (att2): Sequential(
          (0): Linear(in_features=50, out_features=512, bias=False)
          (1): Tanh()
          (2): Linear(in_features=512, out_features=512, bias=False)
        )
        (fc_x): Linear(in_features=32, out_features=64, bias=False)
        (fc_neib): Linear(in_features=50, out_features=64, bias=False)
        (dropout): Dropout(p=0.5)
      )
      (6): AttentionAggregator2(
        (att): Sequential(
          (0): Linear(in_features=32, out_features=512, bias=False)
          (1): Tanh()
          (2): Linear(in_features=512, out_features=512, bias=False)
        )
        (att2): Sequential(
          (0): Linear(in_features=50, out_features=512, bias=False)
          (1): Tanh()
          (2): Linear(in_features=512, out_features=512, bias=False)
        )
        (fc_x): Linear(in_features=32, out_features=64, bias=False)
        (fc_neib): Linear(in_features=50, out_features=64, bias=False)
        (dropout): Dropout(p=0.5)
      )
      (7): AttentionAggregator2(
        (att): Sequential(
          (0): Linear(in_features=32, out_features=512, bias=False)
          (1): Tanh()
          (2): Linear(in_features=512, out_features=512, bias=False)
        )
        (att2): Sequential(
          (0): Linear(in_features=50, out_features=512, bias=False)
          (1): Tanh()
          (2): Linear(in_features=512, out_features=512, bias=False)
        )
        (fc_x): Linear(in_features=32, out_features=64, bias=False)
        (fc_neib): Linear(in_features=50, out_features=64, bias=False)
        (dropout): Dropout(p=0.5)
      )
      (8): AttentionAggregator2(
        (att): Sequential(
          (0): Linear(in_features=32, out_features=512, bias=False)
          (1): Tanh()
          (2): Linear(in_features=512, out_features=512, bias=False)
        )
        (att2): Sequential(
          (0): Linear(in_features=50, out_features=512, bias=False)
          (1): Tanh()
          (2): Linear(in_features=512, out_features=512, bias=False)
        )
        (fc_x): Linear(in_features=32, out_features=64, bias=False)
        (fc_neib): Linear(in_features=50, out_features=64, bias=False)
        (dropout): Dropout(p=0.5)
      )
      (9): AttentionAggregator2(
        (att): Sequential(
          (0): Linear(in_features=32, out_features=512, bias=False)
          (1): Tanh()
          (2): Linear(in_features=512, out_features=512, bias=False)
        )
        (att2): Sequential(
          (0): Linear(in_features=50, out_features=512, bias=False)
          (1): Tanh()
          (2): Linear(in_features=512, out_features=512, bias=False)
        )
        (fc_x): Linear(in_features=32, out_features=64, bias=False)
        (fc_neib): Linear(in_features=50, out_features=64, bias=False)
        (dropout): Dropout(p=0.5)
      )
      (10): AttentionAggregator2(
        (att): Sequential(
          (0): Linear(in_features=32, out_features=512, bias=False)
          (1): Tanh()
          (2): Linear(in_features=512, out_features=512, bias=False)
        )
        (att2): Sequential(
          (0): Linear(in_features=50, out_features=512, bias=False)
          (1): Tanh()
          (2): Linear(in_features=512, out_features=512, bias=False)
        )
        (fc_x): Linear(in_features=32, out_features=64, bias=False)
        (fc_neib): Linear(in_features=50, out_features=64, bias=False)
        (dropout): Dropout(p=0.5)
      )
      (11): AttentionAggregator2(
        (att): Sequential(
          (0): Linear(in_features=32, out_features=512, bias=False)
          (1): Tanh()
          (2): Linear(in_features=512, out_features=512, bias=False)
        )
        (att2): Sequential(
          (0): Linear(in_features=50, out_features=512, bias=False)
          (1): Tanh()
          (2): Linear(in_features=512, out_features=512, bias=False)
        )
        (fc_x): Linear(in_features=32, out_features=64, bias=False)
        (fc_neib): Linear(in_features=50, out_features=64, bias=False)
        (dropout): Dropout(p=0.5)
      )
      (12): AttentionAggregator2(
        (att): Sequential(
          (0): Linear(in_features=32, out_features=512, bias=False)
          (1): Tanh()
          (2): Linear(in_features=512, out_features=512, bias=False)
        )
        (att2): Sequential(
          (0): Linear(in_features=50, out_features=512, bias=False)
          (1): Tanh()
          (2): Linear(in_features=512, out_features=512, bias=False)
        )
        (fc_x): Linear(in_features=32, out_features=64, bias=False)
        (fc_neib): Linear(in_features=50, out_features=64, bias=False)
        (dropout): Dropout(p=0.5)
      )
      (13): AttentionAggregator2(
        (att): Sequential(
          (0): Linear(in_features=32, out_features=512, bias=False)
          (1): Tanh()
          (2): Linear(in_features=512, out_features=512, bias=False)
        )
        (att2): Sequential(
          (0): Linear(in_features=50, out_features=512, bias=False)
          (1): Tanh()
          (2): Linear(in_features=512, out_features=512, bias=False)
        )
        (fc_x): Linear(in_features=32, out_features=64, bias=False)
        (fc_neib): Linear(in_features=50, out_features=64, bias=False)
        (dropout): Dropout(p=0.5)
      )
      (14): AttentionAggregator2(
        (att): Sequential(
          (0): Linear(in_features=32, out_features=512, bias=False)
          (1): Tanh()
          (2): Linear(in_features=512, out_features=512, bias=False)
        )
        (att2): Sequential(
          (0): Linear(in_features=50, out_features=512, bias=False)
          (1): Tanh()
          (2): Linear(in_features=512, out_features=512, bias=False)
        )
        (fc_x): Linear(in_features=32, out_features=64, bias=False)
        (fc_neib): Linear(in_features=50, out_features=64, bias=False)
        (dropout): Dropout(p=0.5)
      )
      (15): AttentionAggregator2(
        (att): Sequential(
          (0): Linear(in_features=32, out_features=512, bias=False)
          (1): Tanh()
          (2): Linear(in_features=512, out_features=512, bias=False)
        )
        (att2): Sequential(
          (0): Linear(in_features=50, out_features=512, bias=False)
          (1): Tanh()
          (2): Linear(in_features=512, out_features=512, bias=False)
        )
        (fc_x): Linear(in_features=32, out_features=64, bias=False)
        (fc_neib): Linear(in_features=50, out_features=64, bias=False)
        (dropout): Dropout(p=0.5)
      )
    )
    (edge_0_0): IdEdgeAggregator(
      (dropout): Dropout(p=0.5)
    )
    (agg_1_0): ModuleList(
      (0): AttentionAggregator2(
        (att): Sequential(
          (0): Linear(in_features=32, out_features=512, bias=False)
          (1): Tanh()
          (2): Linear(in_features=512, out_features=512, bias=False)
        )
        (att2): Sequential(
          (0): Linear(in_features=50, out_features=512, bias=False)
          (1): Tanh()
          (2): Linear(in_features=512, out_features=512, bias=False)
        )
        (fc_x): Linear(in_features=32, out_features=64, bias=False)
        (fc_neib): Linear(in_features=50, out_features=64, bias=False)
        (dropout): Dropout(p=0.5)
      )
      (1): AttentionAggregator2(
        (att): Sequential(
          (0): Linear(in_features=32, out_features=512, bias=False)
          (1): Tanh()
          (2): Linear(in_features=512, out_features=512, bias=False)
        )
        (att2): Sequential(
          (0): Linear(in_features=50, out_features=512, bias=False)
          (1): Tanh()
          (2): Linear(in_features=512, out_features=512, bias=False)
        )
        (fc_x): Linear(in_features=32, out_features=64, bias=False)
        (fc_neib): Linear(in_features=50, out_features=64, bias=False)
        (dropout): Dropout(p=0.5)
      )
      (2): AttentionAggregator2(
        (att): Sequential(
          (0): Linear(in_features=32, out_features=512, bias=False)
          (1): Tanh()
          (2): Linear(in_features=512, out_features=512, bias=False)
        )
        (att2): Sequential(
          (0): Linear(in_features=50, out_features=512, bias=False)
          (1): Tanh()
          (2): Linear(in_features=512, out_features=512, bias=False)
        )
        (fc_x): Linear(in_features=32, out_features=64, bias=False)
        (fc_neib): Linear(in_features=50, out_features=64, bias=False)
        (dropout): Dropout(p=0.5)
      )
      (3): AttentionAggregator2(
        (att): Sequential(
          (0): Linear(in_features=32, out_features=512, bias=False)
          (1): Tanh()
          (2): Linear(in_features=512, out_features=512, bias=False)
        )
        (att2): Sequential(
          (0): Linear(in_features=50, out_features=512, bias=False)
          (1): Tanh()
          (2): Linear(in_features=512, out_features=512, bias=False)
        )
        (fc_x): Linear(in_features=32, out_features=64, bias=False)
        (fc_neib): Linear(in_features=50, out_features=64, bias=False)
        (dropout): Dropout(p=0.5)
      )
      (4): AttentionAggregator2(
        (att): Sequential(
          (0): Linear(in_features=32, out_features=512, bias=False)
          (1): Tanh()
          (2): Linear(in_features=512, out_features=512, bias=False)
        )
        (att2): Sequential(
          (0): Linear(in_features=50, out_features=512, bias=False)
          (1): Tanh()
          (2): Linear(in_features=512, out_features=512, bias=False)
        )
        (fc_x): Linear(in_features=32, out_features=64, bias=False)
        (fc_neib): Linear(in_features=50, out_features=64, bias=False)
        (dropout): Dropout(p=0.5)
      )
      (5): AttentionAggregator2(
        (att): Sequential(
          (0): Linear(in_features=32, out_features=512, bias=False)
          (1): Tanh()
          (2): Linear(in_features=512, out_features=512, bias=False)
        )
        (att2): Sequential(
          (0): Linear(in_features=50, out_features=512, bias=False)
          (1): Tanh()
          (2): Linear(in_features=512, out_features=512, bias=False)
        )
        (fc_x): Linear(in_features=32, out_features=64, bias=False)
        (fc_neib): Linear(in_features=50, out_features=64, bias=False)
        (dropout): Dropout(p=0.5)
      )
      (6): AttentionAggregator2(
        (att): Sequential(
          (0): Linear(in_features=32, out_features=512, bias=False)
          (1): Tanh()
          (2): Linear(in_features=512, out_features=512, bias=False)
        )
        (att2): Sequential(
          (0): Linear(in_features=50, out_features=512, bias=False)
          (1): Tanh()
          (2): Linear(in_features=512, out_features=512, bias=False)
        )
        (fc_x): Linear(in_features=32, out_features=64, bias=False)
        (fc_neib): Linear(in_features=50, out_features=64, bias=False)
        (dropout): Dropout(p=0.5)
      )
      (7): AttentionAggregator2(
        (att): Sequential(
          (0): Linear(in_features=32, out_features=512, bias=False)
          (1): Tanh()
          (2): Linear(in_features=512, out_features=512, bias=False)
        )
        (att2): Sequential(
          (0): Linear(in_features=50, out_features=512, bias=False)
          (1): Tanh()
          (2): Linear(in_features=512, out_features=512, bias=False)
        )
        (fc_x): Linear(in_features=32, out_features=64, bias=False)
        (fc_neib): Linear(in_features=50, out_features=64, bias=False)
        (dropout): Dropout(p=0.5)
      )
      (8): AttentionAggregator2(
        (att): Sequential(
          (0): Linear(in_features=32, out_features=512, bias=False)
          (1): Tanh()
          (2): Linear(in_features=512, out_features=512, bias=False)
        )
        (att2): Sequential(
          (0): Linear(in_features=50, out_features=512, bias=False)
          (1): Tanh()
          (2): Linear(in_features=512, out_features=512, bias=False)
        )
        (fc_x): Linear(in_features=32, out_features=64, bias=False)
        (fc_neib): Linear(in_features=50, out_features=64, bias=False)
        (dropout): Dropout(p=0.5)
      )
      (9): AttentionAggregator2(
        (att): Sequential(
          (0): Linear(in_features=32, out_features=512, bias=False)
          (1): Tanh()
          (2): Linear(in_features=512, out_features=512, bias=False)
        )
        (att2): Sequential(
          (0): Linear(in_features=50, out_features=512, bias=False)
          (1): Tanh()
          (2): Linear(in_features=512, out_features=512, bias=False)
        )
        (fc_x): Linear(in_features=32, out_features=64, bias=False)
        (fc_neib): Linear(in_features=50, out_features=64, bias=False)
        (dropout): Dropout(p=0.5)
      )
      (10): AttentionAggregator2(
        (att): Sequential(
          (0): Linear(in_features=32, out_features=512, bias=False)
          (1): Tanh()
          (2): Linear(in_features=512, out_features=512, bias=False)
        )
        (att2): Sequential(
          (0): Linear(in_features=50, out_features=512, bias=False)
          (1): Tanh()
          (2): Linear(in_features=512, out_features=512, bias=False)
        )
        (fc_x): Linear(in_features=32, out_features=64, bias=False)
        (fc_neib): Linear(in_features=50, out_features=64, bias=False)
        (dropout): Dropout(p=0.5)
      )
      (11): AttentionAggregator2(
        (att): Sequential(
          (0): Linear(in_features=32, out_features=512, bias=False)
          (1): Tanh()
          (2): Linear(in_features=512, out_features=512, bias=False)
        )
        (att2): Sequential(
          (0): Linear(in_features=50, out_features=512, bias=False)
          (1): Tanh()
          (2): Linear(in_features=512, out_features=512, bias=False)
        )
        (fc_x): Linear(in_features=32, out_features=64, bias=False)
        (fc_neib): Linear(in_features=50, out_features=64, bias=False)
        (dropout): Dropout(p=0.5)
      )
      (12): AttentionAggregator2(
        (att): Sequential(
          (0): Linear(in_features=32, out_features=512, bias=False)
          (1): Tanh()
          (2): Linear(in_features=512, out_features=512, bias=False)
        )
        (att2): Sequential(
          (0): Linear(in_features=50, out_features=512, bias=False)
          (1): Tanh()
          (2): Linear(in_features=512, out_features=512, bias=False)
        )
        (fc_x): Linear(in_features=32, out_features=64, bias=False)
        (fc_neib): Linear(in_features=50, out_features=64, bias=False)
        (dropout): Dropout(p=0.5)
      )
      (13): AttentionAggregator2(
        (att): Sequential(
          (0): Linear(in_features=32, out_features=512, bias=False)
          (1): Tanh()
          (2): Linear(in_features=512, out_features=512, bias=False)
        )
        (att2): Sequential(
          (0): Linear(in_features=50, out_features=512, bias=False)
          (1): Tanh()
          (2): Linear(in_features=512, out_features=512, bias=False)
        )
        (fc_x): Linear(in_features=32, out_features=64, bias=False)
        (fc_neib): Linear(in_features=50, out_features=64, bias=False)
        (dropout): Dropout(p=0.5)
      )
      (14): AttentionAggregator2(
        (att): Sequential(
          (0): Linear(in_features=32, out_features=512, bias=False)
          (1): Tanh()
          (2): Linear(in_features=512, out_features=512, bias=False)
        )
        (att2): Sequential(
          (0): Linear(in_features=50, out_features=512, bias=False)
          (1): Tanh()
          (2): Linear(in_features=512, out_features=512, bias=False)
        )
        (fc_x): Linear(in_features=32, out_features=64, bias=False)
        (fc_neib): Linear(in_features=50, out_features=64, bias=False)
        (dropout): Dropout(p=0.5)
      )
      (15): AttentionAggregator2(
        (att): Sequential(
          (0): Linear(in_features=32, out_features=512, bias=False)
          (1): Tanh()
          (2): Linear(in_features=512, out_features=512, bias=False)
        )
        (att2): Sequential(
          (0): Linear(in_features=50, out_features=512, bias=False)
          (1): Tanh()
          (2): Linear(in_features=512, out_features=512, bias=False)
        )
        (fc_x): Linear(in_features=32, out_features=64, bias=False)
        (fc_neib): Linear(in_features=50, out_features=64, bias=False)
        (dropout): Dropout(p=0.5)
      )
    )
    (edge_1_0): IdEdgeAggregator(
      (dropout): Dropout(p=0.5)
    )
    (agg_2_0): ModuleList(
      (0): AttentionAggregator2(
        (att): Sequential(
          (0): Linear(in_features=32, out_features=512, bias=False)
          (1): Tanh()
          (2): Linear(in_features=512, out_features=512, bias=False)
        )
        (att2): Sequential(
          (0): Linear(in_features=50, out_features=512, bias=False)
          (1): Tanh()
          (2): Linear(in_features=512, out_features=512, bias=False)
        )
        (fc_x): Linear(in_features=32, out_features=64, bias=False)
        (fc_neib): Linear(in_features=50, out_features=64, bias=False)
        (dropout): Dropout(p=0.5)
      )
      (1): AttentionAggregator2(
        (att): Sequential(
          (0): Linear(in_features=32, out_features=512, bias=False)
          (1): Tanh()
          (2): Linear(in_features=512, out_features=512, bias=False)
        )
        (att2): Sequential(
          (0): Linear(in_features=50, out_features=512, bias=False)
          (1): Tanh()
          (2): Linear(in_features=512, out_features=512, bias=False)
        )
        (fc_x): Linear(in_features=32, out_features=64, bias=False)
        (fc_neib): Linear(in_features=50, out_features=64, bias=False)
        (dropout): Dropout(p=0.5)
      )
      (2): AttentionAggregator2(
        (att): Sequential(
          (0): Linear(in_features=32, out_features=512, bias=False)
          (1): Tanh()
          (2): Linear(in_features=512, out_features=512, bias=False)
        )
        (att2): Sequential(
          (0): Linear(in_features=50, out_features=512, bias=False)
          (1): Tanh()
          (2): Linear(in_features=512, out_features=512, bias=False)
        )
        (fc_x): Linear(in_features=32, out_features=64, bias=False)
        (fc_neib): Linear(in_features=50, out_features=64, bias=False)
        (dropout): Dropout(p=0.5)
      )
      (3): AttentionAggregator2(
        (att): Sequential(
          (0): Linear(in_features=32, out_features=512, bias=False)
          (1): Tanh()
          (2): Linear(in_features=512, out_features=512, bias=False)
        )
        (att2): Sequential(
          (0): Linear(in_features=50, out_features=512, bias=False)
          (1): Tanh()
          (2): Linear(in_features=512, out_features=512, bias=False)
        )
        (fc_x): Linear(in_features=32, out_features=64, bias=False)
        (fc_neib): Linear(in_features=50, out_features=64, bias=False)
        (dropout): Dropout(p=0.5)
      )
      (4): AttentionAggregator2(
        (att): Sequential(
          (0): Linear(in_features=32, out_features=512, bias=False)
          (1): Tanh()
          (2): Linear(in_features=512, out_features=512, bias=False)
        )
        (att2): Sequential(
          (0): Linear(in_features=50, out_features=512, bias=False)
          (1): Tanh()
          (2): Linear(in_features=512, out_features=512, bias=False)
        )
        (fc_x): Linear(in_features=32, out_features=64, bias=False)
        (fc_neib): Linear(in_features=50, out_features=64, bias=False)
        (dropout): Dropout(p=0.5)
      )
      (5): AttentionAggregator2(
        (att): Sequential(
          (0): Linear(in_features=32, out_features=512, bias=False)
          (1): Tanh()
          (2): Linear(in_features=512, out_features=512, bias=False)
        )
        (att2): Sequential(
          (0): Linear(in_features=50, out_features=512, bias=False)
          (1): Tanh()
          (2): Linear(in_features=512, out_features=512, bias=False)
        )
        (fc_x): Linear(in_features=32, out_features=64, bias=False)
        (fc_neib): Linear(in_features=50, out_features=64, bias=False)
        (dropout): Dropout(p=0.5)
      )
      (6): AttentionAggregator2(
        (att): Sequential(
          (0): Linear(in_features=32, out_features=512, bias=False)
          (1): Tanh()
          (2): Linear(in_features=512, out_features=512, bias=False)
        )
        (att2): Sequential(
          (0): Linear(in_features=50, out_features=512, bias=False)
          (1): Tanh()
          (2): Linear(in_features=512, out_features=512, bias=False)
        )
        (fc_x): Linear(in_features=32, out_features=64, bias=False)
        (fc_neib): Linear(in_features=50, out_features=64, bias=False)
        (dropout): Dropout(p=0.5)
      )
      (7): AttentionAggregator2(
        (att): Sequential(
          (0): Linear(in_features=32, out_features=512, bias=False)
          (1): Tanh()
          (2): Linear(in_features=512, out_features=512, bias=False)
        )
        (att2): Sequential(
          (0): Linear(in_features=50, out_features=512, bias=False)
          (1): Tanh()
          (2): Linear(in_features=512, out_features=512, bias=False)
        )
        (fc_x): Linear(in_features=32, out_features=64, bias=False)
        (fc_neib): Linear(in_features=50, out_features=64, bias=False)
        (dropout): Dropout(p=0.5)
      )
      (8): AttentionAggregator2(
        (att): Sequential(
          (0): Linear(in_features=32, out_features=512, bias=False)
          (1): Tanh()
          (2): Linear(in_features=512, out_features=512, bias=False)
        )
        (att2): Sequential(
          (0): Linear(in_features=50, out_features=512, bias=False)
          (1): Tanh()
          (2): Linear(in_features=512, out_features=512, bias=False)
        )
        (fc_x): Linear(in_features=32, out_features=64, bias=False)
        (fc_neib): Linear(in_features=50, out_features=64, bias=False)
        (dropout): Dropout(p=0.5)
      )
      (9): AttentionAggregator2(
        (att): Sequential(
          (0): Linear(in_features=32, out_features=512, bias=False)
          (1): Tanh()
          (2): Linear(in_features=512, out_features=512, bias=False)
        )
        (att2): Sequential(
          (0): Linear(in_features=50, out_features=512, bias=False)
          (1): Tanh()
          (2): Linear(in_features=512, out_features=512, bias=False)
        )
        (fc_x): Linear(in_features=32, out_features=64, bias=False)
        (fc_neib): Linear(in_features=50, out_features=64, bias=False)
        (dropout): Dropout(p=0.5)
      )
      (10): AttentionAggregator2(
        (att): Sequential(
          (0): Linear(in_features=32, out_features=512, bias=False)
          (1): Tanh()
          (2): Linear(in_features=512, out_features=512, bias=False)
        )
        (att2): Sequential(
          (0): Linear(in_features=50, out_features=512, bias=False)
          (1): Tanh()
          (2): Linear(in_features=512, out_features=512, bias=False)
        )
        (fc_x): Linear(in_features=32, out_features=64, bias=False)
        (fc_neib): Linear(in_features=50, out_features=64, bias=False)
        (dropout): Dropout(p=0.5)
      )
      (11): AttentionAggregator2(
        (att): Sequential(
          (0): Linear(in_features=32, out_features=512, bias=False)
          (1): Tanh()
          (2): Linear(in_features=512, out_features=512, bias=False)
        )
        (att2): Sequential(
          (0): Linear(in_features=50, out_features=512, bias=False)
          (1): Tanh()
          (2): Linear(in_features=512, out_features=512, bias=False)
        )
        (fc_x): Linear(in_features=32, out_features=64, bias=False)
        (fc_neib): Linear(in_features=50, out_features=64, bias=False)
        (dropout): Dropout(p=0.5)
      )
      (12): AttentionAggregator2(
        (att): Sequential(
          (0): Linear(in_features=32, out_features=512, bias=False)
          (1): Tanh()
          (2): Linear(in_features=512, out_features=512, bias=False)
        )
        (att2): Sequential(
          (0): Linear(in_features=50, out_features=512, bias=False)
          (1): Tanh()
          (2): Linear(in_features=512, out_features=512, bias=False)
        )
        (fc_x): Linear(in_features=32, out_features=64, bias=False)
        (fc_neib): Linear(in_features=50, out_features=64, bias=False)
        (dropout): Dropout(p=0.5)
      )
      (13): AttentionAggregator2(
        (att): Sequential(
          (0): Linear(in_features=32, out_features=512, bias=False)
          (1): Tanh()
          (2): Linear(in_features=512, out_features=512, bias=False)
        )
        (att2): Sequential(
          (0): Linear(in_features=50, out_features=512, bias=False)
          (1): Tanh()
          (2): Linear(in_features=512, out_features=512, bias=False)
        )
        (fc_x): Linear(in_features=32, out_features=64, bias=False)
        (fc_neib): Linear(in_features=50, out_features=64, bias=False)
        (dropout): Dropout(p=0.5)
      )
      (14): AttentionAggregator2(
        (att): Sequential(
          (0): Linear(in_features=32, out_features=512, bias=False)
          (1): Tanh()
          (2): Linear(in_features=512, out_features=512, bias=False)
        )
        (att2): Sequential(
          (0): Linear(in_features=50, out_features=512, bias=False)
          (1): Tanh()
          (2): Linear(in_features=512, out_features=512, bias=False)
        )
        (fc_x): Linear(in_features=32, out_features=64, bias=False)
        (fc_neib): Linear(in_features=50, out_features=64, bias=False)
        (dropout): Dropout(p=0.5)
      )
      (15): AttentionAggregator2(
        (att): Sequential(
          (0): Linear(in_features=32, out_features=512, bias=False)
          (1): Tanh()
          (2): Linear(in_features=512, out_features=512, bias=False)
        )
        (att2): Sequential(
          (0): Linear(in_features=50, out_features=512, bias=False)
          (1): Tanh()
          (2): Linear(in_features=512, out_features=512, bias=False)
        )
        (fc_x): Linear(in_features=32, out_features=64, bias=False)
        (fc_neib): Linear(in_features=50, out_features=64, bias=False)
        (dropout): Dropout(p=0.5)
      )
    )
    (edge_2_0): IdEdgeAggregator(
      (dropout): Dropout(p=0.5)
    )
    (mp_agg): MetapathAttentionLayer (1024 -> 1024)
    (fc): Sequential(
      (0): Linear(in_features=1024, out_features=32, bias=True)
      (1): ReLU()
      (2): Dropout(p=0.5)
      (3): Linear(in_features=32, out_features=3, bias=True)
    )
  )
)
{"epoch":0,"time":14.64309,"train_loss":47.85051}
{"epoch":0,"val_loss":131.72872,"val_metric":{"accuracy":0.58329,"micro":0.58329,"macro":0.41468},"test_metric":{"accuracy":0.60944,"micro":0.60944,"macro":0.4348},"tolerance:":0}
{"epoch":1,"time":44.64564,"train_loss":44.46937}
{"epoch":1,"val_loss":123.82645,"val_metric":{"accuracy":0.63628,"micro":0.63628,"macro":0.46785},"test_metric":{"accuracy":0.67239,"micro":0.67239,"macro":0.49147},"tolerance:":0}
…
