NodeProblem: loading started
loading edge embedding for MAM complete, num of embeddings: 129098
loading edge embedding for MDM complete, num of embeddings: 5949
loading edge embedding for MWM complete, num of embeddings: 7100
NodeProblem: loading finished
Let's use 2 GPUs!
DataParallel(
  (module): HINGCN_GS(
    (prep): NodeEmbeddingPrep(
      (embedding): Embedding(3493, 32)
      (fc): Linear(in_features=32, out_features=32, bias=True)
    )
    (agg_0_0): ModuleList(
      (0): AttentionAggregator2(
        (att): Sequential(
          (0): Linear(in_features=32, out_features=512, bias=False)
          (1): Tanh()
          (2): Linear(in_features=512, out_features=512, bias=False)
        )
        (att2): Sequential(
          (0): Linear(in_features=50, out_features=512, bias=False)
          (1): Tanh()
          (2): Linear(in_features=512, out_features=512, bias=False)
        )
        (fc_x): Linear(in_features=32, out_features=64, bias=False)
        (fc_neib): Linear(in_features=50, out_features=64, bias=False)
        (dropout): Dropout(p=0.5)
      )
      (1): AttentionAggregator2(
        (att): Sequential(
          (0): Linear(in_features=32, out_features=512, bias=False)
          (1): Tanh()
          (2): Linear(in_features=512, out_features=512, bias=False)
        )
        (att2): Sequential(
          (0): Linear(in_features=50, out_features=512, bias=False)
          (1): Tanh()
          (2): Linear(in_features=512, out_features=512, bias=False)
        )
        (fc_x): Linear(in_features=32, out_features=64, bias=False)
        (fc_neib): Linear(in_features=50, out_features=64, bias=False)
        (dropout): Dropout(p=0.5)
      )
      (2): AttentionAggregator2(
        (att): Sequential(
          (0): Linear(in_features=32, out_features=512, bias=False)
          (1): Tanh()
          (2): Linear(in_features=512, out_features=512, bias=False)
        )
        (att2): Sequential(
          (0): Linear(in_features=50, out_features=512, bias=False)
          (1): Tanh()
          (2): Linear(in_features=512, out_features=512, bias=False)
        )
        (fc_x): Linear(in_features=32, out_features=64, bias=False)
        (fc_neib): Linear(in_features=50, out_features=64, bias=False)
        (dropout): Dropout(p=0.5)
      )
      (3): AttentionAggregator2(
        (att): Sequential(
          (0): Linear(in_features=32, out_features=512, bias=False)
          (1): Tanh()
          (2): Linear(in_features=512, out_features=512, bias=False)
        )
        (att2): Sequential(
          (0): Linear(in_features=50, out_features=512, bias=False)
          (1): Tanh()
          (2): Linear(in_features=512, out_features=512, bias=False)
        )
        (fc_x): Linear(in_features=32, out_features=64, bias=False)
        (fc_neib): Linear(in_features=50, out_features=64, bias=False)
        (dropout): Dropout(p=0.5)
      )
    )
    (edge_0_0): IdEdgeAggregator(
      (dropout): Dropout(p=0.5)
    )
    (agg_1_0): ModuleList(
      (0): AttentionAggregator2(
        (att): Sequential(
          (0): Linear(in_features=32, out_features=512, bias=False)
          (1): Tanh()
          (2): Linear(in_features=512, out_features=512, bias=False)
        )
        (att2): Sequential(
          (0): Linear(in_features=50, out_features=512, bias=False)
          (1): Tanh()
          (2): Linear(in_features=512, out_features=512, bias=False)
        )
        (fc_x): Linear(in_features=32, out_features=64, bias=False)
        (fc_neib): Linear(in_features=50, out_features=64, bias=False)
        (dropout): Dropout(p=0.5)
      )
      (1): AttentionAggregator2(
        (att): Sequential(
          (0): Linear(in_features=32, out_features=512, bias=False)
          (1): Tanh()
          (2): Linear(in_features=512, out_features=512, bias=False)
        )
        (att2): Sequential(
          (0): Linear(in_features=50, out_features=512, bias=False)
          (1): Tanh()
          (2): Linear(in_features=512, out_features=512, bias=False)
        )
        (fc_x): Linear(in_features=32, out_features=64, bias=False)
        (fc_neib): Linear(in_features=50, out_features=64, bias=False)
        (dropout): Dropout(p=0.5)
      )
      (2): AttentionAggregator2(
        (att): Sequential(
          (0): Linear(in_features=32, out_features=512, bias=False)
          (1): Tanh()
          (2): Linear(in_features=512, out_features=512, bias=False)
        )
        (att2): Sequential(
          (0): Linear(in_features=50, out_features=512, bias=False)
          (1): Tanh()
          (2): Linear(in_features=512, out_features=512, bias=False)
        )
        (fc_x): Linear(in_features=32, out_features=64, bias=False)
        (fc_neib): Linear(in_features=50, out_features=64, bias=False)
        (dropout): Dropout(p=0.5)
      )
      (3): AttentionAggregator2(
        (att): Sequential(
          (0): Linear(in_features=32, out_features=512, bias=False)
          (1): Tanh()
          (2): Linear(in_features=512, out_features=512, bias=False)
        )
        (att2): Sequential(
          (0): Linear(in_features=50, out_features=512, bias=False)
          (1): Tanh()
          (2): Linear(in_features=512, out_features=512, bias=False)
        )
        (fc_x): Linear(in_features=32, out_features=64, bias=False)
        (fc_neib): Linear(in_features=50, out_features=64, bias=False)
        (dropout): Dropout(p=0.5)
      )
    )
    (edge_1_0): IdEdgeAggregator(
      (dropout): Dropout(p=0.5)
    )
    (agg_2_0): ModuleList(
      (0): AttentionAggregator2(
        (att): Sequential(
          (0): Linear(in_features=32, out_features=512, bias=False)
          (1): Tanh()
          (2): Linear(in_features=512, out_features=512, bias=False)
        )
        (att2): Sequential(
          (0): Linear(in_features=50, out_features=512, bias=False)
          (1): Tanh()
          (2): Linear(in_features=512, out_features=512, bias=False)
        )
        (fc_x): Linear(in_features=32, out_features=64, bias=False)
        (fc_neib): Linear(in_features=50, out_features=64, bias=False)
        (dropout): Dropout(p=0.5)
      )
      (1): AttentionAggregator2(
        (att): Sequential(
          (0): Linear(in_features=32, out_features=512, bias=False)
          (1): Tanh()
          (2): Linear(in_features=512, out_features=512, bias=False)
        )
        (att2): Sequential(
          (0): Linear(in_features=50, out_features=512, bias=False)
          (1): Tanh()
          (2): Linear(in_features=512, out_features=512, bias=False)
        )
        (fc_x): Linear(in_features=32, out_features=64, bias=False)
        (fc_neib): Linear(in_features=50, out_features=64, bias=False)
        (dropout): Dropout(p=0.5)
      )
      (2): AttentionAggregator2(
        (att): Sequential(
          (0): Linear(in_features=32, out_features=512, bias=False)
          (1): Tanh()
          (2): Linear(in_features=512, out_features=512, bias=False)
        )
        (att2): Sequential(
          (0): Linear(in_features=50, out_features=512, bias=False)
          (1): Tanh()
          (2): Linear(in_features=512, out_features=512, bias=False)
        )
        (fc_x): Linear(in_features=32, out_features=64, bias=False)
        (fc_neib): Linear(in_features=50, out_features=64, bias=False)
        (dropout): Dropout(p=0.5)
      )
      (3): AttentionAggregator2(
        (att): Sequential(
          (0): Linear(in_features=32, out_features=512, bias=False)
          (1): Tanh()
          (2): Linear(in_features=512, out_features=512, bias=False)
        )
        (att2): Sequential(
          (0): Linear(in_features=50, out_features=512, bias=False)
          (1): Tanh()
          (2): Linear(in_features=512, out_features=512, bias=False)
        )
        (fc_x): Linear(in_features=32, out_features=64, bias=False)
        (fc_neib): Linear(in_features=50, out_features=64, bias=False)
        (dropout): Dropout(p=0.5)
      )
    )
    (edge_2_0): IdEdgeAggregator(
      (dropout): Dropout(p=0.5)
    )
    (mp_agg): MetapathGateLayer (256 -> 256)
    (fc): Sequential(
      (0): Linear(in_features=256, out_features=32, bias=True)
      (1): ReLU()
      (2): Dropout(p=0.5)
      (3): Linear(in_features=32, out_features=3, bias=True)
    )
  )
)
{"epoch":0,"time":17.69386,"train_loss":186.12593}
{"epoch":0,"val_loss":175.17664,"val_metric":{"accuracy":0.53042,"micro":0.53042,"macro":0.34886},"test_metric":{"accuracy":0.53934,"micro":0.53934,"macro":0.36055},"tolerance:":0}
{"epoch":1,"time":43.41449,"train_loss":161.82202}
{"epoch":1,"val_loss":152.14169,"val_metric":{"accuracy":0.65068,"micro":0.65068,"macro":0.47797},"test_metric":{"accuracy":0.68383,"micro":0.68383,"macro":0.49963},"tolerance:":0}
…
