NodeProblem: loading started
loading edge embedding for MAM complete
loading edge embedding for MDM complete
loading edge embedding for MWM complete
NodeProblem: loading finished
Let's use 2 GPUs!
DataParallel(
  (module): HINGCN_GS(
    (prep): NodeEmbeddingPrep(
      (embedding): Embedding(3493, 16)
      (fc): Linear(in_features=16, out_features=16, bias=True)
    )
    (agg_0_0): AttentionAggregator(
      (att): Sequential(
        (0): Linear(in_features=17, out_features=32, bias=False)
        (1): Tanh()
        (2): Linear(in_features=32, out_features=32, bias=False)
      )
      (fc_x): Linear(in_features=17, out_features=16, bias=False)
      (fc_neib): Linear(in_features=17, out_features=16, bias=False)
      (bn): BatchNorm1d(16, eps=1e-05, momentum=0.1, affine=True, track_running_stats=True)
    )
    (edge_0_0): EdgeAggregator (16 + 16 -> 16)
    (agg_0_1): AttentionAggregator(
      (att): Sequential(
        (0): Linear(in_features=16, out_features=32, bias=False)
        (1): Tanh()
        (2): Linear(in_features=32, out_features=32, bias=False)
      )
      (fc_x): Linear(in_features=16, out_features=16, bias=False)
      (fc_neib): Linear(in_features=16, out_features=16, bias=False)
      (bn): BatchNorm1d(16, eps=1e-05, momentum=0.1, affine=True, track_running_stats=True)
    )
    (edge_0_1): EdgeAggregator (16 + 16 -> 16)
    (agg_1_0): AttentionAggregator(
      (att): Sequential(
        (0): Linear(in_features=17, out_features=32, bias=False)
        (1): Tanh()
        (2): Linear(in_features=32, out_features=32, bias=False)
      )
      (fc_x): Linear(in_features=17, out_features=16, bias=False)
      (fc_neib): Linear(in_features=17, out_features=16, bias=False)
      (bn): BatchNorm1d(16, eps=1e-05, momentum=0.1, affine=True, track_running_stats=True)
    )
    (edge_1_0): EdgeAggregator (16 + 16 -> 16)
    (agg_1_1): AttentionAggregator(
      (att): Sequential(
        (0): Linear(in_features=16, out_features=32, bias=False)
        (1): Tanh()
        (2): Linear(in_features=32, out_features=32, bias=False)
      )
      (fc_x): Linear(in_features=16, out_features=16, bias=False)
      (fc_neib): Linear(in_features=16, out_features=16, bias=False)
      (bn): BatchNorm1d(16, eps=1e-05, momentum=0.1, affine=True, track_running_stats=True)
    )
    (edge_1_1): EdgeAggregator (16 + 16 -> 16)
    (agg_2_0): AttentionAggregator(
      (att): Sequential(
        (0): Linear(in_features=17, out_features=32, bias=False)
        (1): Tanh()
        (2): Linear(in_features=32, out_features=32, bias=False)
      )
      (fc_x): Linear(in_features=17, out_features=16, bias=False)
      (fc_neib): Linear(in_features=17, out_features=16, bias=False)
      (bn): BatchNorm1d(16, eps=1e-05, momentum=0.1, affine=True, track_running_stats=True)
    )
    (edge_2_0): EdgeAggregator (16 + 16 -> 16)
    (agg_2_1): AttentionAggregator(
      (att): Sequential(
        (0): Linear(in_features=16, out_features=32, bias=False)
        (1): Tanh()
        (2): Linear(in_features=32, out_features=32, bias=False)
      )
      (fc_x): Linear(in_features=16, out_features=16, bias=False)
      (fc_neib): Linear(in_features=16, out_features=16, bias=False)
      (bn): BatchNorm1d(16, eps=1e-05, momentum=0.1, affine=True, track_running_stats=True)
    )
    (edge_2_1): EdgeAggregator (16 + 16 -> 16)
    (mp_agg): MetapathAggrLayer (16 -> 16)
    (fc): Linear(in_features=16, out_features=3, bias=True)
  )
)
{"epoch":0,"epoch_progress":0.0,"train_metric":{"accuracy":0.2543,"micro":0.2543,"macro":0.22623},"time":10.01783}
{"epoch":0,"time":10.01803,"train_loss":1.14715}
{"epoch":0,"val_loss":1.1031,"val_metric":{"accuracy":0.43236,"micro":0.43236,"macro":0.2364},"test_metric":{"accuracy":0.42203,"micro":0.42203,"macro":0.21602},"tolerance:":0}
{"epoch":1,"epoch_progress":0.0,"train_metric":{"accuracy":0.28295,"micro":0.28295,"macro":0.25973},"time":25.91364}
…
