NodeProblem: loading started
loading edge embedding for MAM complete
loading edge embedding for MDM complete
loading edge embedding for MWM complete
NodeProblem: loading finished
Let's use 2 GPUs!
DataParallel(
  (module): HINGCN_GS(
    (prep): NodeEmbeddingPrep(
      (embedding): Embedding(3493, 16)
      (fc): Linear(in_features=16, out_features=16, bias=True)
    )
    (agg_0_0): AttentionAggregator(
      (att): Sequential(
        (0): Linear(in_features=17, out_features=32, bias=False)
        (1): Tanh()
        (2): Linear(in_features=32, out_features=32, bias=False)
      )
      (fc_x): Linear(in_features=17, out_features=16, bias=False)
      (fc_neib): Linear(in_features=17, out_features=16, bias=False)
      (bn): BatchNorm1d(16, eps=1e-05, momentum=0.1, affine=True, track_running_stats=True)
    )
    (edge_0_0): ResEdge (16 + 16 -> 16)
    (agg_0_1): AttentionAggregator(
      (att): Sequential(
        (0): Linear(in_features=16, out_features=32, bias=False)
        (1): Tanh()
        (2): Linear(in_features=32, out_features=32, bias=False)
      )
      (fc_x): Linear(in_features=16, out_features=16, bias=False)
      (fc_neib): Linear(in_features=16, out_features=16, bias=False)
      (bn): BatchNorm1d(16, eps=1e-05, momentum=0.1, affine=True, track_running_stats=True)
    )
    (edge_0_1): ResEdge (16 + 16 -> 16)
    (agg_1_0): AttentionAggregator(
      (att): Sequential(
        (0): Linear(in_features=17, out_features=32, bias=False)
        (1): Tanh()
        (2): Linear(in_features=32, out_features=32, bias=False)
      )
      (fc_x): Linear(in_features=17, out_features=16, bias=False)
      (fc_neib): Linear(in_features=17, out_features=16, bias=False)
      (bn): BatchNorm1d(16, eps=1e-05, momentum=0.1, affine=True, track_running_stats=True)
    )
    (edge_1_0): ResEdge (16 + 16 -> 16)
    (agg_1_1): AttentionAggregator(
      (att): Sequential(
        (0): Linear(in_features=16, out_features=32, bias=False)
        (1): Tanh()
        (2): Linear(in_features=32, out_features=32, bias=False)
      )
      (fc_x): Linear(in_features=16, out_features=16, bias=False)
      (fc_neib): Linear(in_features=16, out_features=16, bias=False)
      (bn): BatchNorm1d(16, eps=1e-05, momentum=0.1, affine=True, track_running_stats=True)
    )
    (edge_1_1): ResEdge (16 + 16 -> 16)
    (agg_2_0): AttentionAggregator(
      (att): Sequential(
        (0): Linear(in_features=17, out_features=32, bias=False)
        (1): Tanh()
        (2): Linear(in_features=32, out_features=32, bias=False)
      )
      (fc_x): Linear(in_features=17, out_features=16, bias=False)
      (fc_neib): Linear(in_features=17, out_features=16, bias=False)
      (bn): BatchNorm1d(16, eps=1e-05, momentum=0.1, affine=True, track_running_stats=True)
    )
    (edge_2_0): ResEdge (16 + 16 -> 16)
    (agg_2_1): AttentionAggregator(
      (att): Sequential(
        (0): Linear(in_features=16, out_features=32, bias=False)
        (1): Tanh()
        (2): Linear(in_features=32, out_features=32, bias=False)
      )
      (fc_x): Linear(in_features=16, out_features=16, bias=False)
      (fc_neib): Linear(in_features=16, out_features=16, bias=False)
      (bn): BatchNorm1d(16, eps=1e-05, momentum=0.1, affine=True, track_running_stats=True)
    )
    (edge_2_1): ResEdge (16 + 16 -> 16)
    (mp_agg): MetapathAggrLayer (16 -> 16)
    (fc): Linear(in_features=16, out_features=3, bias=True)
  )
)
{"epoch":0,"epoch_progress":0.0,"train_metric":{"accuracy":0.2765,"micro":0.2765,"macro":0.27668},"time":9.90376}
{"epoch":0,"time":9.90394,"train_loss":1.1201}
{"epoch":0,"val_loss":1.06776,"val_metric":{"accuracy":0.44452,"micro":0.44452,"macro":0.20638},"test_metric":{"accuracy":0.44492,"micro":0.44492,"macro":0.20548},"tolerance:":0}
{"epoch":1,"epoch_progress":0.0,"train_metric":{"accuracy":0.29943,"micro":0.29943,"macro":0.29886},"time":25.20788}
…
