NodeProblem: loading started
loading edge embedding for MAM complete, num of embeddings: 129098
empty feature
NodeProblem: loading finished
Let's use 1 GPUs!
DataParallel(
  (module): HINGCN_Dense(
    (prep): NodeEmbeddingPrep(
      (embedding): Embedding(3493, 64)
      (fc): Linear(in_features=64, out_features=64, bias=True)
    )
    (agg_0_0): ModuleList(
      (0): DenseAttentionAggregator(
        (att_x): Sequential(
          (0): Linear(in_features=64, out_features=32, bias=True)
          (1): Tanh()
          (2): Linear(in_features=32, out_features=32, bias=True)
        )
        (att_neigh): Sequential(
          (0): Linear(in_features=64, out_features=32, bias=True)
          (1): Tanh()
          (2): Linear(in_features=32, out_features=32, bias=True)
        )
        (fc_value): Linear(in_features=64, out_features=64, bias=True)
        (fc_x): Linear(in_features=64, out_features=64, bias=True)
        (dropout): Dropout(p=0.5)
      )
      (1): DenseAttentionAggregator(
        (att_x): Sequential(
          (0): Linear(in_features=64, out_features=32, bias=True)
          (1): Tanh()
          (2): Linear(in_features=32, out_features=32, bias=True)
        )
        (att_neigh): Sequential(
          (0): Linear(in_features=64, out_features=32, bias=True)
          (1): Tanh()
          (2): Linear(in_features=32, out_features=32, bias=True)
        )
        (fc_value): Linear(in_features=64, out_features=64, bias=True)
        (fc_x): Linear(in_features=64, out_features=64, bias=True)
        (dropout): Dropout(p=0.5)
      )
      (2): DenseAttentionAggregator(
        (att_x): Sequential(
          (0): Linear(in_features=64, out_features=32, bias=True)
          (1): Tanh()
          (2): Linear(in_features=32, out_features=32, bias=True)
        )
        (att_neigh): Sequential(
          (0): Linear(in_features=64, out_features=32, bias=True)
          (1): Tanh()
          (2): Linear(in_features=32, out_features=32, bias=True)
        )
        (fc_value): Linear(in_features=64, out_features=64, bias=True)
        (fc_x): Linear(in_features=64, out_features=64, bias=True)
        (dropout): Dropout(p=0.5)
      )
      (3): DenseAttentionAggregator(
        (att_x): Sequential(
          (0): Linear(in_features=64, out_features=32, bias=True)
          (1): Tanh()
          (2): Linear(in_features=32, out_features=32, bias=True)
        )
        (att_neigh): Sequential(
          (0): Linear(in_features=64, out_features=32, bias=True)
          (1): Tanh()
          (2): Linear(in_features=32, out_features=32, bias=True)
        )
        (fc_value): Linear(in_features=64, out_features=64, bias=True)
        (fc_x): Linear(in_features=64, out_features=64, bias=True)
        (dropout): Dropout(p=0.5)
      )
    )
    (agg_0_1): ModuleList(
      (0): DenseAttentionAggregator(
        (att_x): Sequential(
          (0): Linear(in_features=256, out_features=32, bias=True)
          (1): Tanh()
          (2): Linear(in_features=32, out_features=32, bias=True)
        )
        (att_neigh): Sequential(
          (0): Linear(in_features=256, out_features=32, bias=True)
          (1): Tanh()
          (2): Linear(in_features=32, out_features=32, bias=True)
        )
        (fc_value): Linear(in_features=256, out_features=16, bias=True)
        (fc_x): Linear(in_features=256, out_features=16, bias=True)
        (dropout): Dropout(p=0.5)
      )
      (1): DenseAttentionAggregator(
        (att_x): Sequential(
          (0): Linear(in_features=256, out_features=32, bias=True)
          (1): Tanh()
          (2): Linear(in_features=32, out_features=32, bias=True)
        )
        (att_neigh): Sequential(
          (0): Linear(in_features=256, out_features=32, bias=True)
          (1): Tanh()
          (2): Linear(in_features=32, out_features=32, bias=True)
        )
        (fc_value): Linear(in_features=256, out_features=16, bias=True)
        (fc_x): Linear(in_features=256, out_features=16, bias=True)
        (dropout): Dropout(p=0.5)
      )
      (2): DenseAttentionAggregator(
        (att_x): Sequential(
          (0): Linear(in_features=256, out_features=32, bias=True)
          (1): Tanh()
          (2): Linear(in_features=32, out_features=32, bias=True)
        )
        (att_neigh): Sequential(
          (0): Linear(in_features=256, out_features=32, bias=True)
          (1): Tanh()
          (2): Linear(in_features=32, out_features=32, bias=True)
        )
        (fc_value): Linear(in_features=256, out_features=16, bias=True)
        (fc_x): Linear(in_features=256, out_features=16, bias=True)
        (dropout): Dropout(p=0.5)
      )
      (3): DenseAttentionAggregator(
        (att_x): Sequential(
          (0): Linear(in_features=256, out_features=32, bias=True)
          (1): Tanh()
          (2): Linear(in_features=32, out_features=32, bias=True)
        )
        (att_neigh): Sequential(
          (0): Linear(in_features=256, out_features=32, bias=True)
          (1): Tanh()
          (2): Linear(in_features=32, out_features=32, bias=True)
        )
        (fc_value): Linear(in_features=256, out_features=16, bias=True)
        (fc_x): Linear(in_features=256, out_features=16, bias=True)
        (dropout): Dropout(p=0.5)
      )
    )
    (mp_agg): MetapathAttentionLayer (320 -> 320)
    (fc): Linear(in_features=320, out_features=3, bias=True)
  )
)
[1.]
{"epoch":0,"time":0.37918,"train_loss":1.10821}
{"epoch":0,"val_loss":1.09403,"val_metric":{"accuracy":0.442,"micro":0.442,"macro":0.20448},"test_metric":{"accuracy":0.46209,"micro":0.46209,"macro":0.2109},"tolerance:":0}
[1.]
{"epoch":1,"time":0.63799,"train_loss":1.10226}
{"epoch":1,"val_loss":1.08165,"val_metric":{"accuracy":0.44439,"micro":0.44439,"macro":0.20511},"test_metric":{"accuracy":0.46352,"micro":0.46352,"macro":0.21114},"tolerance:":0}
…
