NodeProblem: loading started
loading edge embedding for BRURB complete, num of embeddings: 265474
loading edge embedding for BRKRB complete, num of embeddings: 2815462
0.370444288
NodeProblem: loading finished
Let's use 2 GPUs!
DataParallel(
  (module): HINGCN_GS(
    (prep): LinearPrep(
      (fc): Linear(in_features=2, out_features=32, bias=False)
    )
    (agg_0_0): ModuleList(
      (0): AttentionAggregator2(
        (att): Sequential(
          (0): Linear(in_features=32, out_features=512, bias=False)
          (1): Tanh()
          (2): Linear(in_features=512, out_features=512, bias=False)
        )
        (att2): Sequential(
          (0): Linear(in_features=50, out_features=512, bias=False)
          (1): Tanh()
          (2): Linear(in_features=512, out_features=512, bias=False)
        )
        (fc_x): Linear(in_features=32, out_features=64, bias=False)
        (fc_neib): Linear(in_features=50, out_features=64, bias=False)
        (dropout): Dropout(p=0.5)
      )
      (1): AttentionAggregator2(
        (att): Sequential(
          (0): Linear(in_features=32, out_features=512, bias=False)
          (1): Tanh()
          (2): Linear(in_features=512, out_features=512, bias=False)
        )
        (att2): Sequential(
          (0): Linear(in_features=50, out_features=512, bias=False)
          (1): Tanh()
          (2): Linear(in_features=512, out_features=512, bias=False)
        )
        (fc_x): Linear(in_features=32, out_features=64, bias=False)
        (fc_neib): Linear(in_features=50, out_features=64, bias=False)
        (dropout): Dropout(p=0.5)
      )
      (2): AttentionAggregator2(
        (att): Sequential(
          (0): Linear(in_features=32, out_features=512, bias=False)
          (1): Tanh()
          (2): Linear(in_features=512, out_features=512, bias=False)
        )
        (att2): Sequential(
          (0): Linear(in_features=50, out_features=512, bias=False)
          (1): Tanh()
          (2): Linear(in_features=512, out_features=512, bias=False)
        )
        (fc_x): Linear(in_features=32, out_features=64, bias=False)
        (fc_neib): Linear(in_features=50, out_features=64, bias=False)
        (dropout): Dropout(p=0.5)
      )
      (3): AttentionAggregator2(
        (att): Sequential(
          (0): Linear(in_features=32, out_features=512, bias=False)
          (1): Tanh()
          (2): Linear(in_features=512, out_features=512, bias=False)
        )
        (att2): Sequential(
          (0): Linear(in_features=50, out_features=512, bias=False)
          (1): Tanh()
          (2): Linear(in_features=512, out_features=512, bias=False)
        )
        (fc_x): Linear(in_features=32, out_features=64, bias=False)
        (fc_neib): Linear(in_features=50, out_features=64, bias=False)
        (dropout): Dropout(p=0.5)
      )
    )
    (edge_0_0): IdEdgeAggregator(
      (dropout): Dropout(p=0.5)
    )
    (agg_1_0): ModuleList(
      (0): AttentionAggregator2(
        (att): Sequential(
          (0): Linear(in_features=32, out_features=512, bias=False)
          (1): Tanh()
          (2): Linear(in_features=512, out_features=512, bias=False)
        )
        (att2): Sequential(
          (0): Linear(in_features=50, out_features=512, bias=False)
          (1): Tanh()
          (2): Linear(in_features=512, out_features=512, bias=False)
        )
        (fc_x): Linear(in_features=32, out_features=64, bias=False)
        (fc_neib): Linear(in_features=50, out_features=64, bias=False)
        (dropout): Dropout(p=0.5)
      )
      (1): AttentionAggregator2(
        (att): Sequential(
          (0): Linear(in_features=32, out_features=512, bias=False)
          (1): Tanh()
          (2): Linear(in_features=512, out_features=512, bias=False)
        )
        (att2): Sequential(
          (0): Linear(in_features=50, out_features=512, bias=False)
          (1): Tanh()
          (2): Linear(in_features=512, out_features=512, bias=False)
        )
        (fc_x): Linear(in_features=32, out_features=64, bias=False)
        (fc_neib): Linear(in_features=50, out_features=64, bias=False)
        (dropout): Dropout(p=0.5)
      )
      (2): AttentionAggregator2(
        (att): Sequential(
          (0): Linear(in_features=32, out_features=512, bias=False)
          (1): Tanh()
          (2): Linear(in_features=512, out_features=512, bias=False)
        )
        (att2): Sequential(
          (0): Linear(in_features=50, out_features=512, bias=False)
          (1): Tanh()
          (2): Linear(in_features=512, out_features=512, bias=False)
        )
        (fc_x): Linear(in_features=32, out_features=64, bias=False)
        (fc_neib): Linear(in_features=50, out_features=64, bias=False)
        (dropout): Dropout(p=0.5)
      )
      (3): AttentionAggregator2(
        (att): Sequential(
          (0): Linear(in_features=32, out_features=512, bias=False)
          (1): Tanh()
          (2): Linear(in_features=512, out_features=512, bias=False)
        )
        (att2): Sequential(
          (0): Linear(in_features=50, out_features=512, bias=False)
          (1): Tanh()
          (2): Linear(in_features=512, out_features=512, bias=False)
        )
        (fc_x): Linear(in_features=32, out_features=64, bias=False)
        (fc_neib): Linear(in_features=50, out_features=64, bias=False)
        (dropout): Dropout(p=0.5)
      )
    )
    (edge_1_0): IdEdgeAggregator(
      (dropout): Dropout(p=0.5)
    )
    (mp_agg): MetapathAttentionLayer (256 -> 256)
    (fc): Sequential(
      (0): Linear(in_features=256, out_features=32, bias=True)
      (1): ReLU()
      (2): Dropout(p=0.5)
      (3): Linear(in_features=32, out_features=3, bias=True)
    )
  )
)
{"epoch":0,"time":7.33351,"train_loss":35.90957}
{"epoch":0,"val_loss":99.17279,"val_metric":{"accuracy":0.74952,"micro":0.74952,"macro":0.54884},"test_metric":{"accuracy":0.71128,"micro":0.71128,"macro":0.53094},"tolerance:":0}
{"epoch":1,"time":21.76313,"train_loss":33.59674}
{"epoch":1,"val_loss":91.58246,"val_metric":{"accuracy":0.74952,"micro":0.74952,"macro":0.54884},"test_metric":{"accuracy":0.71128,"micro":0.71128,"macro":0.53094},"tolerance:":0}
…
