NodeProblem: loading started
loading edge embedding for BRKRB complete, num of embeddings: 2815462
NodeProblem: loading finished
Let's use 1 GPUs!
DataParallel(
  (module): HINGCN_Dense(
    (prep): IdentityPrep()
    (agg_0_0): ModuleList(
      (0): DenseAttentionAggregator(
        (att_x): Sequential(
          (0): Linear(in_features=5, out_features=32, bias=True)
          (1): Tanh()
          (2): Linear(in_features=32, out_features=32, bias=True)
        )
        (att_neigh): Sequential(
          (0): Linear(in_features=5, out_features=32, bias=True)
          (1): Tanh()
          (2): Linear(in_features=32, out_features=32, bias=True)
        )
        (fc_value): Linear(in_features=5, out_features=64, bias=True)
        (fc_x): Linear(in_features=5, out_features=64, bias=True)
        (dropout): Dropout(p=0.5)
      )
      (1): DenseAttentionAggregator(
        (att_x): Sequential(
          (0): Linear(in_features=5, out_features=32, bias=True)
          (1): Tanh()
          (2): Linear(in_features=32, out_features=32, bias=True)
        )
        (att_neigh): Sequential(
          (0): Linear(in_features=5, out_features=32, bias=True)
          (1): Tanh()
          (2): Linear(in_features=32, out_features=32, bias=True)
        )
        (fc_value): Linear(in_features=5, out_features=64, bias=True)
        (fc_x): Linear(in_features=5, out_features=64, bias=True)
        (dropout): Dropout(p=0.5)
      )
      (2): DenseAttentionAggregator(
        (att_x): Sequential(
          (0): Linear(in_features=5, out_features=32, bias=True)
          (1): Tanh()
          (2): Linear(in_features=32, out_features=32, bias=True)
        )
        (att_neigh): Sequential(
          (0): Linear(in_features=5, out_features=32, bias=True)
          (1): Tanh()
          (2): Linear(in_features=32, out_features=32, bias=True)
        )
        (fc_value): Linear(in_features=5, out_features=64, bias=True)
        (fc_x): Linear(in_features=5, out_features=64, bias=True)
        (dropout): Dropout(p=0.5)
      )
      (3): DenseAttentionAggregator(
        (att_x): Sequential(
          (0): Linear(in_features=5, out_features=32, bias=True)
          (1): Tanh()
          (2): Linear(in_features=32, out_features=32, bias=True)
        )
        (att_neigh): Sequential(
          (0): Linear(in_features=5, out_features=32, bias=True)
          (1): Tanh()
          (2): Linear(in_features=32, out_features=32, bias=True)
        )
        (fc_value): Linear(in_features=5, out_features=64, bias=True)
        (fc_x): Linear(in_features=5, out_features=64, bias=True)
        (dropout): Dropout(p=0.5)
      )
    )
    (agg_0_1): ModuleList(
      (0): DenseAttentionAggregator(
        (att_x): Sequential(
          (0): Linear(in_features=256, out_features=32, bias=True)
          (1): Tanh()
          (2): Linear(in_features=32, out_features=32, bias=True)
        )
        (att_neigh): Sequential(
          (0): Linear(in_features=256, out_features=32, bias=True)
          (1): Tanh()
          (2): Linear(in_features=32, out_features=32, bias=True)
        )
        (fc_value): Linear(in_features=256, out_features=16, bias=True)
        (fc_x): Linear(in_features=256, out_features=16, bias=True)
        (dropout): Dropout(p=0.5)
      )
      (1): DenseAttentionAggregator(
        (att_x): Sequential(
          (0): Linear(in_features=256, out_features=32, bias=True)
          (1): Tanh()
          (2): Linear(in_features=32, out_features=32, bias=True)
        )
        (att_neigh): Sequential(
          (0): Linear(in_features=256, out_features=32, bias=True)
          (1): Tanh()
          (2): Linear(in_features=32, out_features=32, bias=True)
        )
        (fc_value): Linear(in_features=256, out_features=16, bias=True)
        (fc_x): Linear(in_features=256, out_features=16, bias=True)
        (dropout): Dropout(p=0.5)
      )
      (2): DenseAttentionAggregator(
        (att_x): Sequential(
          (0): Linear(in_features=256, out_features=32, bias=True)
          (1): Tanh()
          (2): Linear(in_features=32, out_features=32, bias=True)
        )
        (att_neigh): Sequential(
          (0): Linear(in_features=256, out_features=32, bias=True)
          (1): Tanh()
          (2): Linear(in_features=32, out_features=32, bias=True)
        )
        (fc_value): Linear(in_features=256, out_features=16, bias=True)
        (fc_x): Linear(in_features=256, out_features=16, bias=True)
        (dropout): Dropout(p=0.5)
      )
      (3): DenseAttentionAggregator(
        (att_x): Sequential(
          (0): Linear(in_features=256, out_features=32, bias=True)
          (1): Tanh()
          (2): Linear(in_features=32, out_features=32, bias=True)
        )
        (att_neigh): Sequential(
          (0): Linear(in_features=256, out_features=32, bias=True)
          (1): Tanh()
          (2): Linear(in_features=32, out_features=32, bias=True)
        )
        (fc_value): Linear(in_features=256, out_features=16, bias=True)
        (fc_x): Linear(in_features=256, out_features=16, bias=True)
        (dropout): Dropout(p=0.5)
      )
    )
    (mp_agg): MetapathAttentionLayer (320 -> 320)
    (fc): Linear(in_features=320, out_features=3, bias=True)
  )
)
[1.]
{"epoch":0,"time":0.36617,"train_loss":1.10395}
{"epoch":0,"val_loss":1.10319,"val_metric":{"accuracy":0.18197,"micro":0.18197,"macro":0.10264},"test_metric":{"accuracy":0.17017,"micro":0.17017,"macro":0.09695},"tolerance:":0}
[1.]
{"epoch":1,"time":0.56057,"train_loss":1.10329}
{"epoch":1,"val_loss":1.09731,"val_metric":{"accuracy":0.25301,"micro":0.25301,"macro":0.22061},"test_metric":{"accuracy":0.23709,"micro":0.23709,"macro":0.21136},"tolerance:":0}
…
