NodeProblem: loading started
loading edge embedding for BRURB complete, num of embeddings: 262860
loading edge embedding for BRKRB complete, num of embeddings: 2812848
NodeProblem: loading finished
Let's use 1 GPUs!
DataParallel(
  (module): HINGCN_GS(
    (prep): NodeEmbeddingPrep(
      (embedding): Embedding(2615, 16)
      (fc): Linear(in_features=16, out_features=16, bias=True)
    )
    (agg_0_0): ModuleList(
      (0): AttentionAggregator2(
        (att): Sequential(
          (0): Linear(in_features=16, out_features=32, bias=False)
          (1): Tanh()
          (2): Linear(in_features=32, out_features=32, bias=False)
        )
        (att2): Sequential(
          (0): Linear(in_features=33, out_features=32, bias=False)
          (1): Tanh()
          (2): Linear(in_features=32, out_features=32, bias=False)
        )
        (fc_x): Linear(in_features=16, out_features=64, bias=False)
        (fc_neib): Linear(in_features=33, out_features=64, bias=False)
        (dropout): Dropout(p=0.5)
      )
      (1): AttentionAggregator2(
        (att): Sequential(
          (0): Linear(in_features=16, out_features=32, bias=False)
          (1): Tanh()
          (2): Linear(in_features=32, out_features=32, bias=False)
        )
        (att2): Sequential(
          (0): Linear(in_features=33, out_features=32, bias=False)
          (1): Tanh()
          (2): Linear(in_features=32, out_features=32, bias=False)
        )
        (fc_x): Linear(in_features=16, out_features=64, bias=False)
        (fc_neib): Linear(in_features=33, out_features=64, bias=False)
        (dropout): Dropout(p=0.5)
      )
      (2): AttentionAggregator2(
        (att): Sequential(
          (0): Linear(in_features=16, out_features=32, bias=False)
          (1): Tanh()
          (2): Linear(in_features=32, out_features=32, bias=False)
        )
        (att2): Sequential(
          (0): Linear(in_features=33, out_features=32, bias=False)
          (1): Tanh()
          (2): Linear(in_features=32, out_features=32, bias=False)
        )
        (fc_x): Linear(in_features=16, out_features=64, bias=False)
        (fc_neib): Linear(in_features=33, out_features=64, bias=False)
        (dropout): Dropout(p=0.5)
      )
      (3): AttentionAggregator2(
        (att): Sequential(
          (0): Linear(in_features=16, out_features=32, bias=False)
          (1): Tanh()
          (2): Linear(in_features=32, out_features=32, bias=False)
        )
        (att2): Sequential(
          (0): Linear(in_features=33, out_features=32, bias=False)
          (1): Tanh()
          (2): Linear(in_features=32, out_features=32, bias=False)
        )
        (fc_x): Linear(in_features=16, out_features=64, bias=False)
        (fc_neib): Linear(in_features=33, out_features=64, bias=False)
        (dropout): Dropout(p=0.5)
      )
    )
    (edge_0_0): ResEdge (256 + 17 -> 17)
    (agg_1_0): ModuleList(
      (0): AttentionAggregator2(
        (att): Sequential(
          (0): Linear(in_features=16, out_features=32, bias=False)
          (1): Tanh()
          (2): Linear(in_features=32, out_features=32, bias=False)
        )
        (att2): Sequential(
          (0): Linear(in_features=33, out_features=32, bias=False)
          (1): Tanh()
          (2): Linear(in_features=32, out_features=32, bias=False)
        )
        (fc_x): Linear(in_features=16, out_features=64, bias=False)
        (fc_neib): Linear(in_features=33, out_features=64, bias=False)
        (dropout): Dropout(p=0.5)
      )
      (1): AttentionAggregator2(
        (att): Sequential(
          (0): Linear(in_features=16, out_features=32, bias=False)
          (1): Tanh()
          (2): Linear(in_features=32, out_features=32, bias=False)
        )
        (att2): Sequential(
          (0): Linear(in_features=33, out_features=32, bias=False)
          (1): Tanh()
          (2): Linear(in_features=32, out_features=32, bias=False)
        )
        (fc_x): Linear(in_features=16, out_features=64, bias=False)
        (fc_neib): Linear(in_features=33, out_features=64, bias=False)
        (dropout): Dropout(p=0.5)
      )
      (2): AttentionAggregator2(
        (att): Sequential(
          (0): Linear(in_features=16, out_features=32, bias=False)
          (1): Tanh()
          (2): Linear(in_features=32, out_features=32, bias=False)
        )
        (att2): Sequential(
          (0): Linear(in_features=33, out_features=32, bias=False)
          (1): Tanh()
          (2): Linear(in_features=32, out_features=32, bias=False)
        )
        (fc_x): Linear(in_features=16, out_features=64, bias=False)
        (fc_neib): Linear(in_features=33, out_features=64, bias=False)
        (dropout): Dropout(p=0.5)
      )
      (3): AttentionAggregator2(
        (att): Sequential(
          (0): Linear(in_features=16, out_features=32, bias=False)
          (1): Tanh()
          (2): Linear(in_features=32, out_features=32, bias=False)
        )
        (att2): Sequential(
          (0): Linear(in_features=33, out_features=32, bias=False)
          (1): Tanh()
          (2): Linear(in_features=32, out_features=32, bias=False)
        )
        (fc_x): Linear(in_features=16, out_features=64, bias=False)
        (fc_neib): Linear(in_features=33, out_features=64, bias=False)
        (dropout): Dropout(p=0.5)
      )
    )
    (edge_1_0): ResEdge (256 + 17 -> 17)
    (back_emb): Embedding(34728, 16)
    (background): Sequential(
      (0): GraphConvolution (16 -> 64)
      (1): ReLU()
      (2): Dropout(p=0.5)
      (3): GraphConvolution (64 -> 32)
      (4): ReLU()
      (5): Dropout(p=0.5)
      (6): GraphConvolution (32 -> 16)
      (7): ReLU()
      (8): Dropout(p=0.5)
      (9): Linear(in_features=16, out_features=256, bias=True)
    )
    (mp_agg): MetapathAggrLayer (256 -> 256)
    (fc): Linear(in_features=256, out_features=3, bias=True)
  )
)
[0.2173822  0.60790294 0.17471483]
[0 1 2] [0 1 2]
{"epoch":0,"epoch_progress":0.0,"train_metric":{"accuracy":0.41435,"micro":0.41435,"macro":0.33239},"time":5.74695}
{"epoch":0,"time":5.74704,"train_loss":1.08736}
[0 1 2] [0 1]
[0 1 2] [0 1]
{"epoch":0,"val_loss":1.05024,"val_metric":{"accuracy":0.51243,"micro":0.51243,"macro":0.32461},"test_metric":{"accuracy":0.43595,"micro":0.43595,"macro":0.26902},"tolerance:":0}
…
