NodeProblem: loading started
loading edge embedding for BRKRB complete, num of embeddings: 2815462
NodeProblem: loading finished
Let's use 1 GPUs!
DataParallel(
  (module): HINGCN_Dense(
    (prep): IdentityPrep()
    (agg_0_0): ModuleList(
      (0): DenseAttentionAggregator(
        (att_x): Sequential(
          (0): Linear(in_features=5, out_features=256, bias=True)
          (1): Tanh()
          (2): Linear(in_features=256, out_features=256, bias=True)
        )
        (att_neigh): Sequential(
          (0): Linear(in_features=5, out_features=256, bias=True)
          (1): Tanh()
          (2): Linear(in_features=256, out_features=256, bias=True)
        )
        (fc_value): Linear(in_features=5, out_features=64, bias=True)
        (fc_x): Linear(in_features=5, out_features=64, bias=True)
        (dropout): Dropout(p=0.6)
      )
      (1): DenseAttentionAggregator(
        (att_x): Sequential(
          (0): Linear(in_features=5, out_features=256, bias=True)
          (1): Tanh()
          (2): Linear(in_features=256, out_features=256, bias=True)
        )
        (att_neigh): Sequential(
          (0): Linear(in_features=5, out_features=256, bias=True)
          (1): Tanh()
          (2): Linear(in_features=256, out_features=256, bias=True)
        )
        (fc_value): Linear(in_features=5, out_features=64, bias=True)
        (fc_x): Linear(in_features=5, out_features=64, bias=True)
        (dropout): Dropout(p=0.6)
      )
      (2): DenseAttentionAggregator(
        (att_x): Sequential(
          (0): Linear(in_features=5, out_features=256, bias=True)
          (1): Tanh()
          (2): Linear(in_features=256, out_features=256, bias=True)
        )
        (att_neigh): Sequential(
          (0): Linear(in_features=5, out_features=256, bias=True)
          (1): Tanh()
          (2): Linear(in_features=256, out_features=256, bias=True)
        )
        (fc_value): Linear(in_features=5, out_features=64, bias=True)
        (fc_x): Linear(in_features=5, out_features=64, bias=True)
        (dropout): Dropout(p=0.6)
      )
      (3): DenseAttentionAggregator(
        (att_x): Sequential(
          (0): Linear(in_features=5, out_features=256, bias=True)
          (1): Tanh()
          (2): Linear(in_features=256, out_features=256, bias=True)
        )
        (att_neigh): Sequential(
          (0): Linear(in_features=5, out_features=256, bias=True)
          (1): Tanh()
          (2): Linear(in_features=256, out_features=256, bias=True)
        )
        (fc_value): Linear(in_features=5, out_features=64, bias=True)
        (fc_x): Linear(in_features=5, out_features=64, bias=True)
        (dropout): Dropout(p=0.6)
      )
      (4): DenseAttentionAggregator(
        (att_x): Sequential(
          (0): Linear(in_features=5, out_features=256, bias=True)
          (1): Tanh()
          (2): Linear(in_features=256, out_features=256, bias=True)
        )
        (att_neigh): Sequential(
          (0): Linear(in_features=5, out_features=256, bias=True)
          (1): Tanh()
          (2): Linear(in_features=256, out_features=256, bias=True)
        )
        (fc_value): Linear(in_features=5, out_features=64, bias=True)
        (fc_x): Linear(in_features=5, out_features=64, bias=True)
        (dropout): Dropout(p=0.6)
      )
      (5): DenseAttentionAggregator(
        (att_x): Sequential(
          (0): Linear(in_features=5, out_features=256, bias=True)
          (1): Tanh()
          (2): Linear(in_features=256, out_features=256, bias=True)
        )
        (att_neigh): Sequential(
          (0): Linear(in_features=5, out_features=256, bias=True)
          (1): Tanh()
          (2): Linear(in_features=256, out_features=256, bias=True)
        )
        (fc_value): Linear(in_features=5, out_features=64, bias=True)
        (fc_x): Linear(in_features=5, out_features=64, bias=True)
        (dropout): Dropout(p=0.6)
      )
      (6): DenseAttentionAggregator(
        (att_x): Sequential(
          (0): Linear(in_features=5, out_features=256, bias=True)
          (1): Tanh()
          (2): Linear(in_features=256, out_features=256, bias=True)
        )
        (att_neigh): Sequential(
          (0): Linear(in_features=5, out_features=256, bias=True)
          (1): Tanh()
          (2): Linear(in_features=256, out_features=256, bias=True)
        )
        (fc_value): Linear(in_features=5, out_features=64, bias=True)
        (fc_x): Linear(in_features=5, out_features=64, bias=True)
        (dropout): Dropout(p=0.6)
      )
      (7): DenseAttentionAggregator(
        (att_x): Sequential(
          (0): Linear(in_features=5, out_features=256, bias=True)
          (1): Tanh()
          (2): Linear(in_features=256, out_features=256, bias=True)
        )
        (att_neigh): Sequential(
          (0): Linear(in_features=5, out_features=256, bias=True)
          (1): Tanh()
          (2): Linear(in_features=256, out_features=256, bias=True)
        )
        (fc_value): Linear(in_features=5, out_features=64, bias=True)
        (fc_x): Linear(in_features=5, out_features=64, bias=True)
        (dropout): Dropout(p=0.6)
      )
    )
    (agg_0_1): ModuleList(
      (0): DenseAttentionAggregator(
        (att_x): Sequential(
          (0): Linear(in_features=512, out_features=256, bias=True)
          (1): Tanh()
          (2): Linear(in_features=256, out_features=256, bias=True)
        )
        (att_neigh): Sequential(
          (0): Linear(in_features=512, out_features=256, bias=True)
          (1): Tanh()
          (2): Linear(in_features=256, out_features=256, bias=True)
        )
        (fc_value): Linear(in_features=512, out_features=16, bias=True)
        (fc_x): Linear(in_features=512, out_features=16, bias=True)
        (dropout): Dropout(p=0.6)
      )
      (1): DenseAttentionAggregator(
        (att_x): Sequential(
          (0): Linear(in_features=512, out_features=256, bias=True)
          (1): Tanh()
          (2): Linear(in_features=256, out_features=256, bias=True)
        )
        (att_neigh): Sequential(
          (0): Linear(in_features=512, out_features=256, bias=True)
          (1): Tanh()
          (2): Linear(in_features=256, out_features=256, bias=True)
        )
        (fc_value): Linear(in_features=512, out_features=16, bias=True)
        (fc_x): Linear(in_features=512, out_features=16, bias=True)
        (dropout): Dropout(p=0.6)
      )
      (2): DenseAttentionAggregator(
        (att_x): Sequential(
          (0): Linear(in_features=512, out_features=256, bias=True)
          (1): Tanh()
          (2): Linear(in_features=256, out_features=256, bias=True)
        )
        (att_neigh): Sequential(
          (0): Linear(in_features=512, out_features=256, bias=True)
          (1): Tanh()
          (2): Linear(in_features=256, out_features=256, bias=True)
        )
        (fc_value): Linear(in_features=512, out_features=16, bias=True)
        (fc_x): Linear(in_features=512, out_features=16, bias=True)
        (dropout): Dropout(p=0.6)
      )
      (3): DenseAttentionAggregator(
        (att_x): Sequential(
          (0): Linear(in_features=512, out_features=256, bias=True)
          (1): Tanh()
          (2): Linear(in_features=256, out_features=256, bias=True)
        )
        (att_neigh): Sequential(
          (0): Linear(in_features=512, out_features=256, bias=True)
          (1): Tanh()
          (2): Linear(in_features=256, out_features=256, bias=True)
        )
        (fc_value): Linear(in_features=512, out_features=16, bias=True)
        (fc_x): Linear(in_features=512, out_features=16, bias=True)
        (dropout): Dropout(p=0.6)
      )
      (4): DenseAttentionAggregator(
        (att_x): Sequential(
          (0): Linear(in_features=512, out_features=256, bias=True)
          (1): Tanh()
          (2): Linear(in_features=256, out_features=256, bias=True)
        )
        (att_neigh): Sequential(
          (0): Linear(in_features=512, out_features=256, bias=True)
          (1): Tanh()
          (2): Linear(in_features=256, out_features=256, bias=True)
        )
        (fc_value): Linear(in_features=512, out_features=16, bias=True)
        (fc_x): Linear(in_features=512, out_features=16, bias=True)
        (dropout): Dropout(p=0.6)
      )
      (5): DenseAttentionAggregator(
        (att_x): Sequential(
          (0): Linear(in_features=512, out_features=256, bias=True)
          (1): Tanh()
          (2): Linear(in_features=256, out_features=256, bias=True)
        )
        (att_neigh): Sequential(
          (0): Linear(in_features=512, out_features=256, bias=True)
          (1): Tanh()
          (2): Linear(in_features=256, out_features=256, bias=True)
        )
        (fc_value): Linear(in_features=512, out_features=16, bias=True)
        (fc_x): Linear(in_features=512, out_features=16, bias=True)
        (dropout): Dropout(p=0.6)
      )
      (6): DenseAttentionAggregator(
        (att_x): Sequential(
          (0): Linear(in_features=512, out_features=256, bias=True)
          (1): Tanh()
          (2): Linear(in_features=256, out_features=256, bias=True)
        )
        (att_neigh): Sequential(
          (0): Linear(in_features=512, out_features=256, bias=True)
          (1): Tanh()
          (2): Linear(in_features=256, out_features=256, bias=True)
        )
        (fc_value): Linear(in_features=512, out_features=16, bias=True)
        (fc_x): Linear(in_features=512, out_features=16, bias=True)
        (dropout): Dropout(p=0.6)
      )
      (7): DenseAttentionAggregator(
        (att_x): Sequential(
          (0): Linear(in_features=512, out_features=256, bias=True)
          (1): Tanh()
          (2): Linear(in_features=256, out_features=256, bias=True)
        )
        (att_neigh): Sequential(
          (0): Linear(in_features=512, out_features=256, bias=True)
          (1): Tanh()
          (2): Linear(in_features=256, out_features=256, bias=True)
        )
        (fc_value): Linear(in_features=512, out_features=16, bias=True)
        (fc_x): Linear(in_features=512, out_features=16, bias=True)
        (dropout): Dropout(p=0.6)
      )
    )
    (mp_agg): MetapathGateLayer (640 -> 640)
    (fc): Linear(in_features=640, out_features=3, bias=True)
  )
)
{"epoch":0,"time":0.47304,"train_loss":1.10256}
{"epoch":0,"val_loss":1.07926,"val_metric":{"accuracy":0.39862,"micro":0.39862,"macro":0.19001},"test_metric":{"accuracy":0.42256,"micro":0.42256,"macro":0.19803},"tolerance:":0}
{"epoch":1,"time":0.86546,"train_loss":1.08648}
{"epoch":1,"val_loss":1.05247,"val_metric":{"accuracy":0.443,"micro":0.443,"macro":0.26443},"test_metric":{"accuracy":0.46463,"micro":0.46463,"macro":0.26847},"tolerance:":0}
…
