NodeProblem: loading started
loading edge embedding for BRURB complete, num of embeddings: 265474
loading edge embedding for BRKRB complete, num of embeddings: 2815462
NodeProblem: loading finished
Let's use 2 GPUs!
DataParallel(
  (module): HINGCN_GS(
    (prep): LinearPrep(
      (fc): Linear(in_features=2, out_features=128, bias=False)
    )
    (agg_0_0): ModuleList(
      (0): AttentionAggregator2(
        (att): Sequential(
          (0): Linear(in_features=128, out_features=32, bias=False)
          (1): Tanh()
          (2): Linear(in_features=32, out_features=32, bias=False)
        )
        (att2): Sequential(
          (0): Linear(in_features=146, out_features=32, bias=False)
          (1): Tanh()
          (2): Linear(in_features=32, out_features=32, bias=False)
        )
        (fc_x): Linear(in_features=128, out_features=64, bias=False)
        (fc_neib): Linear(in_features=146, out_features=64, bias=False)
        (dropout): Dropout(p=0.5)
      )
      (1): AttentionAggregator2(
        (att): Sequential(
          (0): Linear(in_features=128, out_features=32, bias=False)
          (1): Tanh()
          (2): Linear(in_features=32, out_features=32, bias=False)
        )
        (att2): Sequential(
          (0): Linear(in_features=146, out_features=32, bias=False)
          (1): Tanh()
          (2): Linear(in_features=32, out_features=32, bias=False)
        )
        (fc_x): Linear(in_features=128, out_features=64, bias=False)
        (fc_neib): Linear(in_features=146, out_features=64, bias=False)
        (dropout): Dropout(p=0.5)
      )
      (2): AttentionAggregator2(
        (att): Sequential(
          (0): Linear(in_features=128, out_features=32, bias=False)
          (1): Tanh()
          (2): Linear(in_features=32, out_features=32, bias=False)
        )
        (att2): Sequential(
          (0): Linear(in_features=146, out_features=32, bias=False)
          (1): Tanh()
          (2): Linear(in_features=32, out_features=32, bias=False)
        )
        (fc_x): Linear(in_features=128, out_features=64, bias=False)
        (fc_neib): Linear(in_features=146, out_features=64, bias=False)
        (dropout): Dropout(p=0.5)
      )
      (3): AttentionAggregator2(
        (att): Sequential(
          (0): Linear(in_features=128, out_features=32, bias=False)
          (1): Tanh()
          (2): Linear(in_features=32, out_features=32, bias=False)
        )
        (att2): Sequential(
          (0): Linear(in_features=146, out_features=32, bias=False)
          (1): Tanh()
          (2): Linear(in_features=32, out_features=32, bias=False)
        )
        (fc_x): Linear(in_features=128, out_features=64, bias=False)
        (fc_neib): Linear(in_features=146, out_features=64, bias=False)
        (dropout): Dropout(p=0.5)
      )
    )
    (edge_0_0): ResEdge (256 + 18 -> 18)
    (agg_1_0): ModuleList(
      (0): AttentionAggregator2(
        (att): Sequential(
          (0): Linear(in_features=128, out_features=32, bias=False)
          (1): Tanh()
          (2): Linear(in_features=32, out_features=32, bias=False)
        )
        (att2): Sequential(
          (0): Linear(in_features=146, out_features=32, bias=False)
          (1): Tanh()
          (2): Linear(in_features=32, out_features=32, bias=False)
        )
        (fc_x): Linear(in_features=128, out_features=64, bias=False)
        (fc_neib): Linear(in_features=146, out_features=64, bias=False)
        (dropout): Dropout(p=0.5)
      )
      (1): AttentionAggregator2(
        (att): Sequential(
          (0): Linear(in_features=128, out_features=32, bias=False)
          (1): Tanh()
          (2): Linear(in_features=32, out_features=32, bias=False)
        )
        (att2): Sequential(
          (0): Linear(in_features=146, out_features=32, bias=False)
          (1): Tanh()
          (2): Linear(in_features=32, out_features=32, bias=False)
        )
        (fc_x): Linear(in_features=128, out_features=64, bias=False)
        (fc_neib): Linear(in_features=146, out_features=64, bias=False)
        (dropout): Dropout(p=0.5)
      )
      (2): AttentionAggregator2(
        (att): Sequential(
          (0): Linear(in_features=128, out_features=32, bias=False)
          (1): Tanh()
          (2): Linear(in_features=32, out_features=32, bias=False)
        )
        (att2): Sequential(
          (0): Linear(in_features=146, out_features=32, bias=False)
          (1): Tanh()
          (2): Linear(in_features=32, out_features=32, bias=False)
        )
        (fc_x): Linear(in_features=128, out_features=64, bias=False)
        (fc_neib): Linear(in_features=146, out_features=64, bias=False)
        (dropout): Dropout(p=0.5)
      )
      (3): AttentionAggregator2(
        (att): Sequential(
          (0): Linear(in_features=128, out_features=32, bias=False)
          (1): Tanh()
          (2): Linear(in_features=32, out_features=32, bias=False)
        )
        (att2): Sequential(
          (0): Linear(in_features=146, out_features=32, bias=False)
          (1): Tanh()
          (2): Linear(in_features=32, out_features=32, bias=False)
        )
        (fc_x): Linear(in_features=128, out_features=64, bias=False)
        (fc_neib): Linear(in_features=146, out_features=64, bias=False)
        (dropout): Dropout(p=0.5)
      )
    )
    (edge_1_0): ResEdge (256 + 18 -> 18)
    (mp_agg): MetapathGateLayer (256 -> 256)
    (fc): Linear(in_features=256, out_features=3, bias=True)
  )
)
{"epoch":0,"epoch_progress":0.0,"train_metric":{"accuracy":0.26603,"micro":0.26603,"macro":0.26553},"time":4.3899}
{"epoch":0,"time":4.38998,"train_loss":1.12905}
{"epoch":0,"val_loss":1.05663,"val_metric":{"accuracy":0.44837,"micro":0.44837,"macro":0.20638},"test_metric":{"accuracy":0.40153,"micro":0.40153,"macro":0.191},"tolerance:":0}
{"epoch":1,"epoch_progress":0.0,"train_metric":{"accuracy":0.37895,"micro":0.37895,"macro":0.33219},"time":6.14695}
…
