NodeProblem: loading started
loading edge embedding for BRURB complete
loading edge embedding for BRKRB complete
NodeProblem: loading finished
Let's use 2 GPUs!
DataParallel(
  (module): HINGCN_GS(
    (prep): NodeEmbeddingPrep(
      (embedding): Embedding(2615, 16)
      (fc): Linear(in_features=16, out_features=16, bias=True)
    )
    (agg_0_0): AttentionAggregator(
      (att): Sequential(
        (0): Linear(in_features=18, out_features=32, bias=False)
        (1): Tanh()
        (2): Linear(in_features=32, out_features=32, bias=False)
      )
      (fc_x): Linear(in_features=18, out_features=16, bias=False)
      (fc_neib): Linear(in_features=18, out_features=16, bias=False)
    )
    (edge_0_0): IdEdgeAggregator()
    (agg_0_1): AttentionAggregator(
      (att): Sequential(
        (0): Linear(in_features=16, out_features=32, bias=False)
        (1): Tanh()
        (2): Linear(in_features=32, out_features=32, bias=False)
      )
      (fc_x): Linear(in_features=16, out_features=16, bias=False)
      (fc_neib): Linear(in_features=16, out_features=16, bias=False)
    )
    (edge_0_1): IdEdgeAggregator()
    (agg_1_0): AttentionAggregator(
      (att): Sequential(
        (0): Linear(in_features=18, out_features=32, bias=False)
        (1): Tanh()
        (2): Linear(in_features=32, out_features=32, bias=False)
      )
      (fc_x): Linear(in_features=18, out_features=16, bias=False)
      (fc_neib): Linear(in_features=18, out_features=16, bias=False)
    )
    (edge_1_0): IdEdgeAggregator()
    (agg_1_1): AttentionAggregator(
      (att): Sequential(
        (0): Linear(in_features=16, out_features=32, bias=False)
        (1): Tanh()
        (2): Linear(in_features=32, out_features=32, bias=False)
      )
      (fc_x): Linear(in_features=16, out_features=16, bias=False)
      (fc_neib): Linear(in_features=16, out_features=16, bias=False)
    )
    (edge_1_1): IdEdgeAggregator()
    (mp_agg): MetapathAggrLayer (16 -> 16)
    (fc): Linear(in_features=16, out_features=3, bias=True)
  )
)
{"epoch":0,"epoch_progress":0.0,"train_metric":{"accuracy":0.36077,"micro":0.36077,"macro":0.30421},"time":8.93799}
{"epoch":0,"time":8.93823,"train_loss":1.1012}
{"epoch":0,"val_loss":1.09259,"val_metric":{"accuracy":0.3891,"micro":0.3891,"macro":0.18674},"test_metric":{"accuracy":0.39962,"micro":0.39962,"macro":0.19035}}
{"epoch":1,"epoch_progress":0.0,"train_metric":{"accuracy":0.36172,"micro":0.36172,"macro":0.2974},"time":21.41105}
…
