NodeProblem: loading started
loading edge embedding for BRURB complete
loading edge embedding for BRKRB complete
NodeProblem: loading finished
Let's use 2 GPUs!
DataParallel(
  (module): HINGCN_GS(
    (prep): NodeEmbeddingPrep(
      (embedding): Embedding(2615, 16)
      (fc): Linear(in_features=16, out_features=16, bias=True)
    )
    (agg_0_0): AttentionAggregator(
      (att): Sequential(
        (0): Linear(in_features=18, out_features=32, bias=False)
        (1): Tanh()
        (2): Linear(in_features=32, out_features=32, bias=False)
      )
      (fc_x): Linear(in_features=18, out_features=16, bias=False)
      (fc_neib): Linear(in_features=18, out_features=16, bias=False)
    )
    (edge_0_0): IdEdgeAggregator()
    (agg_0_1): AttentionAggregator(
      (att): Sequential(
        (0): Linear(in_features=16, out_features=32, bias=False)
        (1): Tanh()
        (2): Linear(in_features=32, out_features=32, bias=False)
      )
      (fc_x): Linear(in_features=16, out_features=8, bias=False)
      (fc_neib): Linear(in_features=16, out_features=8, bias=False)
    )
    (edge_0_1): IdEdgeAggregator()
    (agg_1_0): AttentionAggregator(
      (att): Sequential(
        (0): Linear(in_features=18, out_features=32, bias=False)
        (1): Tanh()
        (2): Linear(in_features=32, out_features=32, bias=False)
      )
      (fc_x): Linear(in_features=18, out_features=16, bias=False)
      (fc_neib): Linear(in_features=18, out_features=16, bias=False)
    )
    (edge_1_0): IdEdgeAggregator()
    (agg_1_1): AttentionAggregator(
      (att): Sequential(
        (0): Linear(in_features=16, out_features=32, bias=False)
        (1): Tanh()
        (2): Linear(in_features=32, out_features=32, bias=False)
      )
      (fc_x): Linear(in_features=16, out_features=8, bias=False)
      (fc_neib): Linear(in_features=16, out_features=8, bias=False)
    )
    (edge_1_1): IdEdgeAggregator()
    (mp_agg): MetapathAggrLayer (8 -> 8)
    (fc): Linear(in_features=8, out_features=3, bias=True)
  )
)
{"epoch":0,"epoch_progress":0.0,"train_metric":{"accuracy":0.18947,"micro":0.18947,"macro":0.10852},"time":8.52051}
{"epoch":0,"time":8.52062,"train_loss":1.13654}
{"epoch":0,"val_loss":1.0843,"val_metric":{"accuracy":0.47706,"micro":0.47706,"macro":0.29314},"test_metric":{"accuracy":0.4283,"micro":0.4283,"macro":0.26864}}
{"epoch":1,"epoch_progress":0.0,"train_metric":{"accuracy":0.42297,"micro":0.42297,"macro":0.27174},"time":21.4316}
…
