NodeProblem: loading started
loading edge embedding for BRURB complete
loading edge embedding for BRKRB complete
NodeProblem: loading finished
Let's use 2 GPUs!
DataParallel(
  (module): HINGCN_GS(
    (prep): NodeEmbeddingPrep(
      (embedding): Embedding(2615, 64)
      (fc): Linear(in_features=64, out_features=64, bias=True)
    )
    (agg_0_0): AttentionAggregator(
      (att): Sequential(
        (0): Linear(in_features=66, out_features=32, bias=False)
        (1): Tanh()
        (2): Linear(in_features=32, out_features=32, bias=False)
      )
      (fc_x): Linear(in_features=66, out_features=16, bias=False)
      (fc_neib): Linear(in_features=66, out_features=16, bias=False)
    )
    (edge_0_0): IdEdgeAggregator()
    (agg_0_1): AttentionAggregator(
      (att): Sequential(
        (0): Linear(in_features=16, out_features=32, bias=False)
        (1): Tanh()
        (2): Linear(in_features=32, out_features=32, bias=False)
      )
      (fc_x): Linear(in_features=16, out_features=16, bias=False)
      (fc_neib): Linear(in_features=16, out_features=16, bias=False)
    )
    (edge_0_1): IdEdgeAggregator()
    (agg_1_0): AttentionAggregator(
      (att): Sequential(
        (0): Linear(in_features=66, out_features=32, bias=False)
        (1): Tanh()
        (2): Linear(in_features=32, out_features=32, bias=False)
      )
      (fc_x): Linear(in_features=66, out_features=16, bias=False)
      (fc_neib): Linear(in_features=66, out_features=16, bias=False)
    )
    (edge_1_0): IdEdgeAggregator()
    (agg_1_1): AttentionAggregator(
      (att): Sequential(
        (0): Linear(in_features=16, out_features=32, bias=False)
        (1): Tanh()
        (2): Linear(in_features=32, out_features=32, bias=False)
      )
      (fc_x): Linear(in_features=16, out_features=16, bias=False)
      (fc_neib): Linear(in_features=16, out_features=16, bias=False)
    )
    (edge_1_1): IdEdgeAggregator()
    (mp_agg): MetapathAggrLayer (16 -> 16)
    (fc): Linear(in_features=16, out_features=3, bias=True)
  )
)
{"epoch":0,"epoch_progress":0.0,"train_metric":{"accuracy":0.2756,"micro":0.2756,"macro":0.26847},"time":13.27869}
{"epoch":0,"time":13.27881,"train_loss":1.12113}
{"epoch":0,"val_loss":1.05669,"val_metric":{"accuracy":0.40631,"micro":0.40631,"macro":0.22733},"test_metric":{"accuracy":0.40727,"micro":0.40727,"macro":0.2298}}
{"epoch":1,"epoch_progress":0.0,"train_metric":{"accuracy":0.28708,"micro":0.28708,"macro":0.28834},"time":27.35945}
…
