NodeProblem: loading started
loading edge embedding for BRURB complete
loading edge embedding for BRKRB complete
NodeProblem: loading finished
Let's use 2 GPUs!
DataParallel(
  (module): HINGCN_GS(
    (prep): NodeEmbeddingPrep(
      (embedding): Embedding(2615, 32)
      (fc): Linear(in_features=32, out_features=32, bias=True)
    )
    (agg_0_0): AttentionAggregator(
      (att): Sequential(
        (0): Linear(in_features=34, out_features=32, bias=False)
        (1): Tanh()
        (2): Linear(in_features=32, out_features=32, bias=False)
      )
      (fc_x): Linear(in_features=34, out_features=32, bias=False)
      (fc_neib): Linear(in_features=34, out_features=32, bias=False)
    )
    (edge_0_0): IdEdgeAggregator()
    (agg_0_1): AttentionAggregator(
      (att): Sequential(
        (0): Linear(in_features=32, out_features=32, bias=False)
        (1): Tanh()
        (2): Linear(in_features=32, out_features=32, bias=False)
      )
      (fc_x): Linear(in_features=32, out_features=16, bias=False)
      (fc_neib): Linear(in_features=32, out_features=16, bias=False)
    )
    (edge_0_1): IdEdgeAggregator()
    (agg_1_0): AttentionAggregator(
      (att): Sequential(
        (0): Linear(in_features=34, out_features=32, bias=False)
        (1): Tanh()
        (2): Linear(in_features=32, out_features=32, bias=False)
      )
      (fc_x): Linear(in_features=34, out_features=32, bias=False)
      (fc_neib): Linear(in_features=34, out_features=32, bias=False)
    )
    (edge_1_0): IdEdgeAggregator()
    (agg_1_1): AttentionAggregator(
      (att): Sequential(
        (0): Linear(in_features=32, out_features=32, bias=False)
        (1): Tanh()
        (2): Linear(in_features=32, out_features=32, bias=False)
      )
      (fc_x): Linear(in_features=32, out_features=16, bias=False)
      (fc_neib): Linear(in_features=32, out_features=16, bias=False)
    )
    (edge_1_1): IdEdgeAggregator()
    (mp_agg): MetapathAggrLayer (16 -> 16)
    (fc): Linear(in_features=16, out_features=3, bias=True)
  )
)
{"epoch":0,"epoch_progress":0.0,"train_metric":{"accuracy":0.42584,"micro":0.42584,"macro":0.209},"time":8.29549}
{"epoch":0,"time":8.29559,"train_loss":1.06488}
{"epoch":0,"val_loss":1.02229,"val_metric":{"accuracy":0.53824,"micro":0.53824,"macro":0.37385},"test_metric":{"accuracy":0.51625,"micro":0.51625,"macro":0.35401}}
{"epoch":1,"epoch_progress":0.0,"train_metric":{"accuracy":0.54258,"micro":0.54258,"macro":0.36814},"time":20.50057}
…
